{
  "nodes": [
    {
      "op": "null", 
      "name": "data", 
      "inputs": []
    }, 
    {
      "op": "_minus_scalar", 
      "name": "_minusscalar0", 
      "attrs": {"scalar": "127.5"}, 
      "inputs": [[0, 0, 0]]
    }, 
    {
      "op": "_mul_scalar", 
      "name": "_mulscalar0", 
      "attrs": {"scalar": "0.0078125"}, 
      "inputs": [[1, 0, 0]]
    }, 
    {
      "op": "null", 
      "name": "stu_conv_1_conv2d_weight", 
      "attrs": {
        "kernel": "(3, 3)", 
        "no_bias": "True", 
        "num_filter": "48", 
        "num_group": "1", 
        "pad": "(1, 1)", 
        "stride": "(2, 2)"
      }, 
      "inputs": []
    }, 
    {
      "op": "Convolution", 
      "name": "stu_conv_1_conv2d", 
      "attrs": {
        "kernel": "(3, 3)", 
        "no_bias": "True", 
        "num_filter": "48", 
        "num_group": "1", 
        "pad": "(1, 1)", 
        "stride": "(2, 2)"
      }, 
      "inputs": [[2, 0, 0], [3, 0, 0]]
    }, 
    {
      "op": "null", 
      "name": "stu_conv_1_batchnorm_gamma", 
      "attrs": {
        "fix_gamma": "False", 
        "momentum": "0.9"
      }, 
      "inputs": []
    }, 
    {
      "op": "null", 
      "name": "stu_conv_1_batchnorm_beta", 
      "attrs": {
        "fix_gamma": "False", 
        "momentum": "0.9"
      }, 
      "inputs": []
    }, 
    {
      "op": "null", 
      "name": "stu_conv_1_batchnorm_moving_mean", 
      "attrs": {
        "__init__": "[\"zero\", {}]", 
        "fix_gamma": "False", 
        "momentum": "0.9"
      }, 
      "inputs": []
    }, 
    {
      "op": "null", 
      "name": "stu_conv_1_batchnorm_moving_var", 
      "attrs": {
        "__init__": "[\"one\", {}]", 
        "fix_gamma": "False", 
        "momentum": "0.9"
      }, 
      "inputs": []
    }, 
    {
      "op": "BatchNorm", 
      "name": "stu_conv_1_batchnorm", 
      "attrs": {
        "fix_gamma": "False", 
        "momentum": "0.9"
      }, 
      "inputs": [[4, 0, 0], [5, 0, 0], [6, 0, 0], [7, 0, 1], [8, 0, 1]]
    }, 
    {
      "op": "null", 
      "name": "stu_conv_1_Frelu_conv_data_scale", 
      "inputs": []
    }, 
    {
      "op": "QuantizePredict", 
      "name": "quant_stu_conv_1_Frelu_conv", 
      "attrs": {"compute_scale": "off"}, 
      "inputs": [[9, 0, 0], [10, 0, 0]]
    }, 
    {
      "op": "null", 
      "name": "stu_conv_1_Frelu_conv_weight", 
      "attrs": {
        "__shape__": "(48, 1, 3, 3)", 
        "kernel": "(3, 3)", 
        "no_bias": "True", 
        "num_filter": "48", 
        "num_group": "48", 
        "pad": "(1, 1)", 
        "stride": "(1, 1)"
      }, 
      "inputs": []
    }, 
    {
      "op": "ConvolutionLowbit", 
      "name": "stu_conv_1_Frelu_conv", 
      "attrs": {
        "kernel": "(3, 3)", 
        "layout": "NCHW", 
        "cudnn_off":"True", 
        "no_bias": "true", 
        "num_filter": "48", 
        "num_group": "48", 
        "pad": "(1, 1)", 
        "stride": "(1, 1)"
      }, 
      "inputs": [[11, 0, 0], [12, 0, 0]]
    }, 
    {
      "op": "null", 
      "name": "stu_conv_1_Frelu_conv_requant_scale", 
      "inputs": []
    }, 
    {
      "op": "RequantizePredict", 
      "name": "requant_stu_conv_1_Frelu_conv", 
      "attrs": {
        "axis": "1", 
        "no_bias": "true"
      }, 
      "inputs": [[13, 0, 0], [14, 0, 0]]
    }, 
    {
      "op": "null", 
      "name": "stu_conv_1_Frelu_batchnorm_gamma", 
      "attrs": {
        "fix_gamma": "False", 
        "momentum": "0.9"
      }, 
      "inputs": []
    }, 
    {
      "op": "null", 
      "name": "stu_conv_1_Frelu_batchnorm_beta", 
      "attrs": {
        "fix_gamma": "False", 
        "momentum": "0.9"
      }, 
      "inputs": []
    }, 
    {
      "op": "null", 
      "name": "stu_conv_1_Frelu_batchnorm_moving_mean", 
      "attrs": {
        "__init__": "[\"zero\", {}]", 
        "fix_gamma": "False", 
        "momentum": "0.9"
      }, 
      "inputs": []
    }, 
    {
      "op": "null", 
      "name": "stu_conv_1_Frelu_batchnorm_moving_var", 
      "attrs": {
        "__init__": "[\"one\", {}]", 
        "fix_gamma": "False", 
        "momentum": "0.9"
      }, 
      "inputs": []
    }, 
    {
      "op": "BatchNorm", 
      "name": "stu_conv_1_Frelu_batchnorm", 
      "attrs": {
        "fix_gamma": "False", 
        "momentum": "0.9"
      }, 
      "inputs": [[15, 0, 0], [16, 0, 0], [17, 0, 0], [18, 0, 1], [19, 0, 1]]
    }, 
    {
      "op": "broadcast_maximum", 
      "name": "stu_conv_1_Frelu_max", 
      "inputs": [[9, 0, 0], [20, 0, 0]]
    }, 
    {
      "op": "null", 
      "name": "stu_res_2_block0_conv_sep_conv2d_data_scale", 
      "inputs": []
    }, 
    {
      "op": "QuantizePredict", 
      "name": "quant_stu_res_2_block0_conv_sep_conv2d", 
      "attrs": {"compute_scale": "off"}, 
      "inputs": [[21, 0, 0], [22, 0, 0]]
    }, 
    {
      "op": "null", 
      "name": "stu_res_2_block0_conv_sep_conv2d_weight", 
      "attrs": {
        "__shape__": "(48, 48, 1, 1)", 
        "kernel": "(1, 1)", 
        "no_bias": "True", 
        "num_filter": "48", 
        "num_group": "1", 
        "pad": "(0, 0)", 
        "stride": "(1, 1)"
      }, 
      "inputs": []
    }, 
    {
      "op": "ConvolutionLowbit", 
      "name": "stu_res_2_block0_conv_sep_conv2d", 
      "attrs": {
        "kernel": "(1, 1)", 
        "layout": "NCHW", 
        "cudnn_off":"True", 
        "no_bias": "true", 
        "num_filter": "48", 
        "num_group": "1", 
        "pad": "(0, 0)", 
        "stride": "(1, 1)"
      }, 
      "inputs": [[23, 0, 0], [24, 0, 0]]
    }, 
    {
      "op": "null", 
      "name": "stu_res_2_block0_conv_sep_conv2d_requant_scale", 
      "inputs": []
    }, 
    {
      "op": "RequantizePredict", 
      "name": "requant_stu_res_2_block0_conv_sep_conv2d", 
      "attrs": {
        "axis": "1", 
        "no_bias": "true"
      }, 
      "inputs": [[25, 0, 0], [26, 0, 0]]
    }, 
    {
      "op": "null", 
      "name": "stu_res_2_block0_conv_sep_batchnorm_gamma", 
      "attrs": {
        "fix_gamma": "False", 
        "momentum": "0.9"
      }, 
      "inputs": []
    }, 
    {
      "op": "null", 
      "name": "stu_res_2_block0_conv_sep_batchnorm_beta", 
      "attrs": {
        "fix_gamma": "False", 
        "momentum": "0.9"
      }, 
      "inputs": []
    }, 
    {
      "op": "null", 
      "name": "stu_res_2_block0_conv_sep_batchnorm_moving_mean", 
      "attrs": {
        "__init__": "[\"zero\", {}]", 
        "fix_gamma": "False", 
        "momentum": "0.9"
      }, 
      "inputs": []
    }, 
    {
      "op": "null", 
      "name": "stu_res_2_block0_conv_sep_batchnorm_moving_var", 
      "attrs": {
        "__init__": "[\"one\", {}]", 
        "fix_gamma": "False", 
        "momentum": "0.9"
      }, 
      "inputs": []
    }, 
    {
      "op": "BatchNorm", 
      "name": "stu_res_2_block0_conv_sep_batchnorm", 
      "attrs": {
        "fix_gamma": "False", 
        "momentum": "0.9"
      }, 
      "inputs": [[27, 0, 0], [28, 0, 0], [29, 0, 0], [30, 0, 1], [31, 0, 1]]
    }, 
    {
      "op": "null", 
      "name": "stu_res_2_block0_conv_sep_Frelu_conv_data_scale", 
      "inputs": []
    }, 
    {
      "op": "QuantizePredict", 
      "name": "quant_stu_res_2_block0_conv_sep_Frelu_conv", 
      "attrs": {"compute_scale": "off"}, 
      "inputs": [[32, 0, 0], [33, 0, 0]]
    }, 
    {
      "op": "null", 
      "name": "stu_res_2_block0_conv_sep_Frelu_conv_weight", 
      "attrs": {
        "__shape__": "(48, 1, 3, 3)", 
        "kernel": "(3, 3)", 
        "no_bias": "True", 
        "num_filter": "48", 
        "num_group": "48", 
        "pad": "(1, 1)", 
        "stride": "(1, 1)"
      }, 
      "inputs": []
    }, 
    {
      "op": "ConvolutionLowbit", 
      "name": "stu_res_2_block0_conv_sep_Frelu_conv", 
      "attrs": {
        "kernel": "(3, 3)", 
        "layout": "NCHW", 
        "cudnn_off":"True", 
        "no_bias": "true", 
        "num_filter": "48", 
        "num_group": "48", 
        "pad": "(1, 1)", 
        "stride": "(1, 1)"
      }, 
      "inputs": [[34, 0, 0], [35, 0, 0]]
    }, 
    {
      "op": "null", 
      "name": "stu_res_2_block0_conv_sep_Frelu_conv_requant_scale", 
      "inputs": []
    }, 
    {
      "op": "RequantizePredict", 
      "name": "requant_stu_res_2_block0_conv_sep_Frelu_conv", 
      "attrs": {
        "axis": "1", 
        "no_bias": "true"
      }, 
      "inputs": [[36, 0, 0], [37, 0, 0]]
    }, 
    {
      "op": "null", 
      "name": "stu_res_2_block0_conv_sep_Frelu_batchnorm_gamma", 
      "attrs": {
        "fix_gamma": "False", 
        "momentum": "0.9"
      }, 
      "inputs": []
    }, 
    {
      "op": "null", 
      "name": "stu_res_2_block0_conv_sep_Frelu_batchnorm_beta", 
      "attrs": {
        "fix_gamma": "False", 
        "momentum": "0.9"
      }, 
      "inputs": []
    }, 
    {
      "op": "null", 
      "name": "stu_res_2_block0_conv_sep_Frelu_batchnorm_moving_mean", 
      "attrs": {
        "__init__": "[\"zero\", {}]", 
        "fix_gamma": "False", 
        "momentum": "0.9"
      }, 
      "inputs": []
    }, 
    {
      "op": "null", 
      "name": "stu_res_2_block0_conv_sep_Frelu_batchnorm_moving_var", 
      "attrs": {
        "__init__": "[\"one\", {}]", 
        "fix_gamma": "False", 
        "momentum": "0.9"
      }, 
      "inputs": []
    }, 
    {
      "op": "BatchNorm", 
      "name": "stu_res_2_block0_conv_sep_Frelu_batchnorm", 
      "attrs": {
        "fix_gamma": "False", 
        "momentum": "0.9"
      }, 
      "inputs": [[38, 0, 0], [39, 0, 0], [40, 0, 0], [41, 0, 1], [42, 0, 1]]
    }, 
    {
      "op": "broadcast_maximum", 
      "name": "stu_res_2_block0_conv_sep_Frelu_max", 
      "inputs": [[32, 0, 0], [43, 0, 0]]
    }, 
    {
      "op": "null", 
      "name": "stu_res_2_block0_conv_dw_conv2d_data_scale", 
      "inputs": []
    }, 
    {
      "op": "QuantizePredict", 
      "name": "quant_stu_res_2_block0_conv_dw_conv2d", 
      "attrs": {"compute_scale": "off"}, 
      "inputs": [[44, 0, 0], [45, 0, 0]]
    }, 
    {
      "op": "null", 
      "name": "stu_res_2_block0_conv_dw_conv2d_weight", 
      "attrs": {
        "__shape__": "(48, 1, 3, 3)", 
        "kernel": "(3, 3)", 
        "no_bias": "True", 
        "num_filter": "48", 
        "num_group": "48", 
        "pad": "(1, 1)", 
        "stride": "(1, 1)"
      }, 
      "inputs": []
    }, 
    {
      "op": "ConvolutionLowbit", 
      "name": "stu_res_2_block0_conv_dw_conv2d", 
      "attrs": {
        "kernel": "(3, 3)", 
        "layout": "NCHW", 
        "cudnn_off":"True", 
        "no_bias": "true", 
        "num_filter": "48", 
        "num_group": "48", 
        "pad": "(1, 1)", 
        "stride": "(1, 1)"
      }, 
      "inputs": [[46, 0, 0], [47, 0, 0]]
    }, 
    {
      "op": "null", 
      "name": "stu_res_2_block0_conv_dw_conv2d_requant_scale", 
      "inputs": []
    }, 
    {
      "op": "RequantizePredict", 
      "name": "requant_stu_res_2_block0_conv_dw_conv2d", 
      "attrs": {
        "axis": "1", 
        "no_bias": "true"
      }, 
      "inputs": [[48, 0, 0], [49, 0, 0]]
    }, 
    {
      "op": "null", 
      "name": "stu_res_2_block0_conv_dw_batchnorm_gamma", 
      "attrs": {
        "fix_gamma": "False", 
        "momentum": "0.9"
      }, 
      "inputs": []
    }, 
    {
      "op": "null", 
      "name": "stu_res_2_block0_conv_dw_batchnorm_beta", 
      "attrs": {
        "fix_gamma": "False", 
        "momentum": "0.9"
      }, 
      "inputs": []
    }, 
    {
      "op": "null", 
      "name": "stu_res_2_block0_conv_dw_batchnorm_moving_mean", 
      "attrs": {
        "__init__": "[\"zero\", {}]", 
        "fix_gamma": "False", 
        "momentum": "0.9"
      }, 
      "inputs": []
    }, 
    {
      "op": "null", 
      "name": "stu_res_2_block0_conv_dw_batchnorm_moving_var", 
      "attrs": {
        "__init__": "[\"one\", {}]", 
        "fix_gamma": "False", 
        "momentum": "0.9"
      }, 
      "inputs": []
    }, 
    {
      "op": "BatchNorm", 
      "name": "stu_res_2_block0_conv_dw_batchnorm", 
      "attrs": {
        "fix_gamma": "False", 
        "momentum": "0.9"
      }, 
      "inputs": [[50, 0, 0], [51, 0, 0], [52, 0, 0], [53, 0, 1], [54, 0, 1]]
    }, 
    {
      "op": "null", 
      "name": "stu_res_2_block0_conv_dw_Frelu_conv_data_scale", 
      "inputs": []
    }, 
    {
      "op": "QuantizePredict", 
      "name": "quant_stu_res_2_block0_conv_dw_Frelu_conv", 
      "attrs": {"compute_scale": "off"}, 
      "inputs": [[55, 0, 0], [56, 0, 0]]
    }, 
    {
      "op": "null", 
      "name": "stu_res_2_block0_conv_dw_Frelu_conv_weight", 
      "attrs": {
        "__shape__": "(48, 1, 3, 3)", 
        "kernel": "(3, 3)", 
        "no_bias": "True", 
        "num_filter": "48", 
        "num_group": "48", 
        "pad": "(1, 1)", 
        "stride": "(1, 1)"
      }, 
      "inputs": []
    }, 
    {
      "op": "ConvolutionLowbit", 
      "name": "stu_res_2_block0_conv_dw_Frelu_conv", 
      "attrs": {
        "kernel": "(3, 3)", 
        "layout": "NCHW", 
        "cudnn_off":"True", 
        "no_bias": "true", 
        "num_filter": "48", 
        "num_group": "48", 
        "pad": "(1, 1)", 
        "stride": "(1, 1)"
      }, 
      "inputs": [[57, 0, 0], [58, 0, 0]]
    }, 
    {
      "op": "null", 
      "name": "stu_res_2_block0_conv_dw_Frelu_conv_requant_scale", 
      "inputs": []
    }, 
    {
      "op": "RequantizePredict", 
      "name": "requant_stu_res_2_block0_conv_dw_Frelu_conv", 
      "attrs": {
        "axis": "1", 
        "no_bias": "true"
      }, 
      "inputs": [[59, 0, 0], [60, 0, 0]]
    }, 
    {
      "op": "null", 
      "name": "stu_res_2_block0_conv_dw_Frelu_batchnorm_gamma", 
      "attrs": {
        "fix_gamma": "False", 
        "momentum": "0.9"
      }, 
      "inputs": []
    }, 
    {
      "op": "null", 
      "name": "stu_res_2_block0_conv_dw_Frelu_batchnorm_beta", 
      "attrs": {
        "fix_gamma": "False", 
        "momentum": "0.9"
      }, 
      "inputs": []
    }, 
    {
      "op": "null", 
      "name": "stu_res_2_block0_conv_dw_Frelu_batchnorm_moving_mean", 
      "attrs": {
        "__init__": "[\"zero\", {}]", 
        "fix_gamma": "False", 
        "momentum": "0.9"
      }, 
      "inputs": []
    }, 
    {
      "op": "null", 
      "name": "stu_res_2_block0_conv_dw_Frelu_batchnorm_moving_var", 
      "attrs": {
        "__init__": "[\"one\", {}]", 
        "fix_gamma": "False", 
        "momentum": "0.9"
      }, 
      "inputs": []
    }, 
    {
      "op": "BatchNorm", 
      "name": "stu_res_2_block0_conv_dw_Frelu_batchnorm", 
      "attrs": {
        "fix_gamma": "False", 
        "momentum": "0.9"
      }, 
      "inputs": [[61, 0, 0], [62, 0, 0], [63, 0, 0], [64, 0, 1], [65, 0, 1]]
    }, 
    {
      "op": "broadcast_maximum", 
      "name": "stu_res_2_block0_conv_dw_Frelu_max", 
      "inputs": [[55, 0, 0], [66, 0, 0]]
    }, 
    {
      "op": "null", 
      "name": "stu_res_2_block0_conv_proj_conv2d_data_scale", 
      "inputs": []
    }, 
    {
      "op": "QuantizePredict", 
      "name": "quant_stu_res_2_block0_conv_proj_conv2d", 
      "attrs": {"compute_scale": "off"}, 
      "inputs": [[67, 0, 0], [68, 0, 0]]
    }, 
    {
      "op": "null", 
      "name": "stu_res_2_block0_conv_proj_conv2d_weight", 
      "attrs": {
        "__shape__": "(24, 48, 1, 1)", 
        "kernel": "(1, 1)", 
        "no_bias": "True", 
        "num_filter": "24", 
        "num_group": "1", 
        "pad": "(0, 0)", 
        "stride": "(1, 1)"
      }, 
      "inputs": []
    }, 
    {
      "op": "ConvolutionLowbit", 
      "name": "stu_res_2_block0_conv_proj_conv2d", 
      "attrs": {
        "kernel": "(1, 1)", 
        "layout": "NCHW", 
        "cudnn_off":"True", 
        "no_bias": "true", 
        "num_filter": "24", 
        "num_group": "1", 
        "pad": "(0, 0)", 
        "stride": "(1, 1)"
      }, 
      "inputs": [[69, 0, 0], [70, 0, 0]]
    }, 
    {
      "op": "null", 
      "name": "stu_res_2_block0_conv_proj_conv2d_requant_scale", 
      "inputs": []
    }, 
    {
      "op": "RequantizePredict", 
      "name": "requant_stu_res_2_block0_conv_proj_conv2d", 
      "attrs": {
        "axis": "1", 
        "no_bias": "true"
      }, 
      "inputs": [[71, 0, 0], [72, 0, 0]]
    }, 
    {
      "op": "null", 
      "name": "stu_res_2_block0_conv_proj_batchnorm_gamma", 
      "attrs": {
        "fix_gamma": "False", 
        "momentum": "0.9"
      }, 
      "inputs": []
    }, 
    {
      "op": "null", 
      "name": "stu_res_2_block0_conv_proj_batchnorm_beta", 
      "attrs": {
        "fix_gamma": "False", 
        "momentum": "0.9"
      }, 
      "inputs": []
    }, 
    {
      "op": "null", 
      "name": "stu_res_2_block0_conv_proj_batchnorm_moving_mean", 
      "attrs": {
        "__init__": "[\"zero\", {}]", 
        "fix_gamma": "False", 
        "momentum": "0.9"
      }, 
      "inputs": []
    }, 
    {
      "op": "null", 
      "name": "stu_res_2_block0_conv_proj_batchnorm_moving_var", 
      "attrs": {
        "__init__": "[\"one\", {}]", 
        "fix_gamma": "False", 
        "momentum": "0.9"
      }, 
      "inputs": []
    }, 
    {
      "op": "BatchNorm", 
      "name": "stu_res_2_block0_conv_proj_batchnorm", 
      "attrs": {
        "fix_gamma": "False", 
        "momentum": "0.9"
      }, 
      "inputs": [[73, 0, 0], [74, 0, 0], [75, 0, 0], [76, 0, 1], [77, 0, 1]]
    }, 
    {
      "op": "null", 
      "name": "stu_res_2_block0_conv_proj_conv2d_cheap_data_scale", 
      "inputs": []
    }, 
    {
      "op": "QuantizePredict", 
      "name": "quant_stu_res_2_block0_conv_proj_conv2d_cheap", 
      "attrs": {"compute_scale": "off"}, 
      "inputs": [[73, 0, 0], [79, 0, 0]]
    }, 
    {
      "op": "null", 
      "name": "stu_res_2_block0_conv_proj_conv2d_cheap_weight", 
      "attrs": {
        "__shape__": "(24, 1, 3, 3)", 
        "kernel": "(3, 3)", 
        "no_bias": "True", 
        "num_filter": "24", 
        "num_group": "24", 
        "pad": "(1, 1)", 
        "stride": "(1, 1)"
      }, 
      "inputs": []
    }, 
    {
      "op": "ConvolutionLowbit", 
      "name": "stu_res_2_block0_conv_proj_conv2d_cheap", 
      "attrs": {
        "kernel": "(3, 3)", 
        "layout": "NCHW", 
        "cudnn_off":"True", 
        "no_bias": "true", 
        "num_filter": "24", 
        "num_group": "24", 
        "pad": "(1, 1)", 
        "stride": "(1, 1)"
      }, 
      "inputs": [[80, 0, 0], [81, 0, 0]]
    }, 
    {
      "op": "null", 
      "name": "stu_res_2_block0_conv_proj_conv2d_cheap_requant_scale", 
      "inputs": []
    }, 
    {
      "op": "RequantizePredict", 
      "name": "requant_stu_res_2_block0_conv_proj_conv2d_cheap", 
      "attrs": {
        "axis": "1", 
        "no_bias": "true"
      }, 
      "inputs": [[82, 0, 0], [83, 0, 0]]
    }, 
    {
      "op": "null", 
      "name": "stu_res_2_block0_conv_proj_batchnorm_cheap_gamma", 
      "attrs": {
        "fix_gamma": "False", 
        "momentum": "0.9"
      }, 
      "inputs": []
    }, 
    {
      "op": "null", 
      "name": "stu_res_2_block0_conv_proj_batchnorm_cheap_beta", 
      "attrs": {
        "fix_gamma": "False", 
        "momentum": "0.9"
      }, 
      "inputs": []
    }, 
    {
      "op": "null", 
      "name": "stu_res_2_block0_conv_proj_batchnorm_cheap_moving_mean", 
      "attrs": {
        "__init__": "[\"zero\", {}]", 
        "fix_gamma": "False", 
        "momentum": "0.9"
      }, 
      "inputs": []
    }, 
    {
      "op": "null", 
      "name": "stu_res_2_block0_conv_proj_batchnorm_cheap_moving_var", 
      "attrs": {
        "__init__": "[\"one\", {}]", 
        "fix_gamma": "False", 
        "momentum": "0.9"
      }, 
      "inputs": []
    }, 
    {
      "op": "BatchNorm", 
      "name": "stu_res_2_block0_conv_proj_batchnorm_cheap", 
      "attrs": {
        "fix_gamma": "False", 
        "momentum": "0.9"
      }, 
      "inputs": [[84, 0, 0], [85, 0, 0], [86, 0, 0], [87, 0, 1], [88, 0, 1]]
    }, 
    {
      "op": "Concat", 
      "name": "concat0", 
      "attrs": {
        "dim": "1", 
        "num_args": "2"
      }, 
      "inputs": [[78, 0, 0], [89, 0, 0]]
    }, 
    {
      "op": "elemwise_add", 
      "name": "_plus0", 
      "inputs": [[90, 0, 0], [21, 0, 0]]
    }, 
    {
      "op": "null", 
      "name": "stu_res_2_block1_conv_sep_conv2d_data_scale", 
      "inputs": []
    }, 
    {
      "op": "QuantizePredict", 
      "name": "quant_stu_res_2_block1_conv_sep_conv2d", 
      "attrs": {"compute_scale": "off"}, 
      "inputs": [[91, 0, 0], [92, 0, 0]]
    }, 
    {
      "op": "null", 
      "name": "stu_res_2_block1_conv_sep_conv2d_weight", 
      "attrs": {
        "__shape__": "(48, 48, 1, 1)", 
        "kernel": "(1, 1)", 
        "no_bias": "True", 
        "num_filter": "48", 
        "num_group": "1", 
        "pad": "(0, 0)", 
        "stride": "(1, 1)"
      }, 
      "inputs": []
    }, 
    {
      "op": "ConvolutionLowbit", 
      "name": "stu_res_2_block1_conv_sep_conv2d", 
      "attrs": {
        "kernel": "(1, 1)", 
        "layout": "NCHW", 
        "cudnn_off":"True", 
        "no_bias": "true", 
        "num_filter": "48", 
        "num_group": "1", 
        "pad": "(0, 0)", 
        "stride": "(1, 1)"
      }, 
      "inputs": [[93, 0, 0], [94, 0, 0]]
    }, 
    {
      "op": "null", 
      "name": "stu_res_2_block1_conv_sep_conv2d_requant_scale", 
      "inputs": []
    }, 
    {
      "op": "RequantizePredict", 
      "name": "requant_stu_res_2_block1_conv_sep_conv2d", 
      "attrs": {
        "axis": "1", 
        "no_bias": "true"
      }, 
      "inputs": [[95, 0, 0], [96, 0, 0]]
    }, 
    {
      "op": "null", 
      "name": "stu_res_2_block1_conv_sep_batchnorm_gamma", 
      "attrs": {
        "fix_gamma": "False", 
        "momentum": "0.9"
      }, 
      "inputs": []
    }, 
    {
      "op": "null", 
      "name": "stu_res_2_block1_conv_sep_batchnorm_beta", 
      "attrs": {
        "fix_gamma": "False", 
        "momentum": "0.9"
      }, 
      "inputs": []
    }, 
    {
      "op": "null", 
      "name": "stu_res_2_block1_conv_sep_batchnorm_moving_mean", 
      "attrs": {
        "__init__": "[\"zero\", {}]", 
        "fix_gamma": "False", 
        "momentum": "0.9"
      }, 
      "inputs": []
    }, 
    {
      "op": "null", 
      "name": "stu_res_2_block1_conv_sep_batchnorm_moving_var", 
      "attrs": {
        "__init__": "[\"one\", {}]", 
        "fix_gamma": "False", 
        "momentum": "0.9"
      }, 
      "inputs": []
    }, 
    {
      "op": "BatchNorm", 
      "name": "stu_res_2_block1_conv_sep_batchnorm", 
      "attrs": {
        "fix_gamma": "False", 
        "momentum": "0.9"
      }, 
      "inputs": [[97, 0, 0], [98, 0, 0], [99, 0, 0], [100, 0, 1], [101, 0, 1]]
    }, 
    {
      "op": "null", 
      "name": "stu_res_2_block1_conv_sep_Frelu_conv_data_scale", 
      "inputs": []
    }, 
    {
      "op": "QuantizePredict", 
      "name": "quant_stu_res_2_block1_conv_sep_Frelu_conv", 
      "attrs": {"compute_scale": "off"}, 
      "inputs": [[102, 0, 0], [103, 0, 0]]
    }, 
    {
      "op": "null", 
      "name": "stu_res_2_block1_conv_sep_Frelu_conv_weight", 
      "attrs": {
        "__shape__": "(48, 1, 3, 3)", 
        "kernel": "(3, 3)", 
        "no_bias": "True", 
        "num_filter": "48", 
        "num_group": "48", 
        "pad": "(1, 1)", 
        "stride": "(1, 1)"
      }, 
      "inputs": []
    }, 
    {
      "op": "ConvolutionLowbit", 
      "name": "stu_res_2_block1_conv_sep_Frelu_conv", 
      "attrs": {
        "kernel": "(3, 3)", 
        "layout": "NCHW", 
        "cudnn_off":"True", 
        "no_bias": "true", 
        "num_filter": "48", 
        "num_group": "48", 
        "pad": "(1, 1)", 
        "stride": "(1, 1)"
      }, 
      "inputs": [[104, 0, 0], [105, 0, 0]]
    }, 
    {
      "op": "null", 
      "name": "stu_res_2_block1_conv_sep_Frelu_conv_requant_scale", 
      "inputs": []
    }, 
    {
      "op": "RequantizePredict", 
      "name": "requant_stu_res_2_block1_conv_sep_Frelu_conv", 
      "attrs": {
        "axis": "1", 
        "no_bias": "true"
      }, 
      "inputs": [[106, 0, 0], [107, 0, 0]]
    }, 
    {
      "op": "null", 
      "name": "stu_res_2_block1_conv_sep_Frelu_batchnorm_gamma", 
      "attrs": {
        "fix_gamma": "False", 
        "momentum": "0.9"
      }, 
      "inputs": []
    }, 
    {
      "op": "null", 
      "name": "stu_res_2_block1_conv_sep_Frelu_batchnorm_beta", 
      "attrs": {
        "fix_gamma": "False", 
        "momentum": "0.9"
      }, 
      "inputs": []
    }, 
    {
      "op": "null", 
      "name": "stu_res_2_block1_conv_sep_Frelu_batchnorm_moving_mean", 
      "attrs": {
        "__init__": "[\"zero\", {}]", 
        "fix_gamma": "False", 
        "momentum": "0.9"
      }, 
      "inputs": []
    }, 
    {
      "op": "null", 
      "name": "stu_res_2_block1_conv_sep_Frelu_batchnorm_moving_var", 
      "attrs": {
        "__init__": "[\"one\", {}]", 
        "fix_gamma": "False", 
        "momentum": "0.9"
      }, 
      "inputs": []
    }, 
    {
      "op": "BatchNorm", 
      "name": "stu_res_2_block1_conv_sep_Frelu_batchnorm", 
      "attrs": {
        "fix_gamma": "False", 
        "momentum": "0.9"
      }, 
      "inputs": [[108, 0, 0], [109, 0, 0], [110, 0, 0], [111, 0, 1], [112, 0, 1]]
    }, 
    {
      "op": "broadcast_maximum", 
      "name": "stu_res_2_block1_conv_sep_Frelu_max", 
      "inputs": [[102, 0, 0], [113, 0, 0]]
    }, 
    {
      "op": "null", 
      "name": "stu_res_2_block1_conv_dw_conv2d_data_scale", 
      "inputs": []
    }, 
    {
      "op": "QuantizePredict", 
      "name": "quant_stu_res_2_block1_conv_dw_conv2d", 
      "attrs": {"compute_scale": "off"}, 
      "inputs": [[114, 0, 0], [115, 0, 0]]
    }, 
    {
      "op": "null", 
      "name": "stu_res_2_block1_conv_dw_conv2d_weight", 
      "attrs": {
        "__shape__": "(48, 1, 3, 3)", 
        "kernel": "(3, 3)", 
        "no_bias": "True", 
        "num_filter": "48", 
        "num_group": "48", 
        "pad": "(1, 1)", 
        "stride": "(1, 1)"
      }, 
      "inputs": []
    }, 
    {
      "op": "ConvolutionLowbit", 
      "name": "stu_res_2_block1_conv_dw_conv2d", 
      "attrs": {
        "kernel": "(3, 3)", 
        "layout": "NCHW", 
        "cudnn_off":"True", 
        "no_bias": "true", 
        "num_filter": "48", 
        "num_group": "48", 
        "pad": "(1, 1)", 
        "stride": "(1, 1)"
      }, 
      "inputs": [[116, 0, 0], [117, 0, 0]]
    }, 
    {
      "op": "null", 
      "name": "stu_res_2_block1_conv_dw_conv2d_requant_scale", 
      "inputs": []
    }, 
    {
      "op": "RequantizePredict", 
      "name": "requant_stu_res_2_block1_conv_dw_conv2d", 
      "attrs": {
        "axis": "1", 
        "no_bias": "true"
      }, 
      "inputs": [[118, 0, 0], [119, 0, 0]]
    }, 
    {
      "op": "null", 
      "name": "stu_res_2_block1_conv_dw_batchnorm_gamma", 
      "attrs": {
        "fix_gamma": "False", 
        "momentum": "0.9"
      }, 
      "inputs": []
    }, 
    {
      "op": "null", 
      "name": "stu_res_2_block1_conv_dw_batchnorm_beta", 
      "attrs": {
        "fix_gamma": "False", 
        "momentum": "0.9"
      }, 
      "inputs": []
    }, 
    {
      "op": "null", 
      "name": "stu_res_2_block1_conv_dw_batchnorm_moving_mean", 
      "attrs": {
        "__init__": "[\"zero\", {}]", 
        "fix_gamma": "False", 
        "momentum": "0.9"
      }, 
      "inputs": []
    }, 
    {
      "op": "null", 
      "name": "stu_res_2_block1_conv_dw_batchnorm_moving_var", 
      "attrs": {
        "__init__": "[\"one\", {}]", 
        "fix_gamma": "False", 
        "momentum": "0.9"
      }, 
      "inputs": []
    }, 
    {
      "op": "BatchNorm", 
      "name": "stu_res_2_block1_conv_dw_batchnorm", 
      "attrs": {
        "fix_gamma": "False", 
        "momentum": "0.9"
      }, 
      "inputs": [[120, 0, 0], [121, 0, 0], [122, 0, 0], [123, 0, 1], [124, 0, 1]]
    }, 
    {
      "op": "null", 
      "name": "stu_res_2_block1_conv_dw_Frelu_conv_data_scale", 
      "inputs": []
    }, 
    {
      "op": "QuantizePredict", 
      "name": "quant_stu_res_2_block1_conv_dw_Frelu_conv", 
      "attrs": {"compute_scale": "off"}, 
      "inputs": [[125, 0, 0], [126, 0, 0]]
    }, 
    {
      "op": "null", 
      "name": "stu_res_2_block1_conv_dw_Frelu_conv_weight", 
      "attrs": {
        "__shape__": "(48, 1, 3, 3)", 
        "kernel": "(3, 3)", 
        "no_bias": "True", 
        "num_filter": "48", 
        "num_group": "48", 
        "pad": "(1, 1)", 
        "stride": "(1, 1)"
      }, 
      "inputs": []
    }, 
    {
      "op": "ConvolutionLowbit", 
      "name": "stu_res_2_block1_conv_dw_Frelu_conv", 
      "attrs": {
        "kernel": "(3, 3)", 
        "layout": "NCHW", 
        "cudnn_off":"True", 
        "no_bias": "true", 
        "num_filter": "48", 
        "num_group": "48", 
        "pad": "(1, 1)", 
        "stride": "(1, 1)"
      }, 
      "inputs": [[127, 0, 0], [128, 0, 0]]
    }, 
    {
      "op": "null", 
      "name": "stu_res_2_block1_conv_dw_Frelu_conv_requant_scale", 
      "inputs": []
    }, 
    {
      "op": "RequantizePredict", 
      "name": "requant_stu_res_2_block1_conv_dw_Frelu_conv", 
      "attrs": {
        "axis": "1", 
        "no_bias": "true"
      }, 
      "inputs": [[129, 0, 0], [130, 0, 0]]
    }, 
    {
      "op": "null", 
      "name": "stu_res_2_block1_conv_dw_Frelu_batchnorm_gamma", 
      "attrs": {
        "fix_gamma": "False", 
        "momentum": "0.9"
      }, 
      "inputs": []
    }, 
    {
      "op": "null", 
      "name": "stu_res_2_block1_conv_dw_Frelu_batchnorm_beta", 
      "attrs": {
        "fix_gamma": "False", 
        "momentum": "0.9"
      }, 
      "inputs": []
    }, 
    {
      "op": "null", 
      "name": "stu_res_2_block1_conv_dw_Frelu_batchnorm_moving_mean", 
      "attrs": {
        "__init__": "[\"zero\", {}]", 
        "fix_gamma": "False", 
        "momentum": "0.9"
      }, 
      "inputs": []
    }, 
    {
      "op": "null", 
      "name": "stu_res_2_block1_conv_dw_Frelu_batchnorm_moving_var", 
      "attrs": {
        "__init__": "[\"one\", {}]", 
        "fix_gamma": "False", 
        "momentum": "0.9"
      }, 
      "inputs": []
    }, 
    {
      "op": "BatchNorm", 
      "name": "stu_res_2_block1_conv_dw_Frelu_batchnorm", 
      "attrs": {
        "fix_gamma": "False", 
        "momentum": "0.9"
      }, 
      "inputs": [[131, 0, 0], [132, 0, 0], [133, 0, 0], [134, 0, 1], [135, 0, 1]]
    }, 
    {
      "op": "broadcast_maximum", 
      "name": "stu_res_2_block1_conv_dw_Frelu_max", 
      "inputs": [[125, 0, 0], [136, 0, 0]]
    }, 
    {
      "op": "null", 
      "name": "stu_res_2_block1_conv_proj_conv2d_data_scale", 
      "inputs": []
    }, 
    {
      "op": "QuantizePredict", 
      "name": "quant_stu_res_2_block1_conv_proj_conv2d", 
      "attrs": {"compute_scale": "off"}, 
      "inputs": [[137, 0, 0], [138, 0, 0]]
    }, 
    {
      "op": "null", 
      "name": "stu_res_2_block1_conv_proj_conv2d_weight", 
      "attrs": {
        "__shape__": "(24, 48, 1, 1)", 
        "kernel": "(1, 1)", 
        "no_bias": "True", 
        "num_filter": "24", 
        "num_group": "1", 
        "pad": "(0, 0)", 
        "stride": "(1, 1)"
      }, 
      "inputs": []
    }, 
    {
      "op": "ConvolutionLowbit", 
      "name": "stu_res_2_block1_conv_proj_conv2d", 
      "attrs": {
        "kernel": "(1, 1)", 
        "layout": "NCHW", 
        "cudnn_off":"True", 
        "no_bias": "true", 
        "num_filter": "24", 
        "num_group": "1", 
        "pad": "(0, 0)", 
        "stride": "(1, 1)"
      }, 
      "inputs": [[139, 0, 0], [140, 0, 0]]
    }, 
    {
      "op": "null", 
      "name": "stu_res_2_block1_conv_proj_conv2d_requant_scale", 
      "inputs": []
    }, 
    {
      "op": "RequantizePredict", 
      "name": "requant_stu_res_2_block1_conv_proj_conv2d", 
      "attrs": {
        "axis": "1", 
        "no_bias": "true"
      }, 
      "inputs": [[141, 0, 0], [142, 0, 0]]
    }, 
    {
      "op": "null", 
      "name": "stu_res_2_block1_conv_proj_batchnorm_gamma", 
      "attrs": {
        "fix_gamma": "False", 
        "momentum": "0.9"
      }, 
      "inputs": []
    }, 
    {
      "op": "null", 
      "name": "stu_res_2_block1_conv_proj_batchnorm_beta", 
      "attrs": {
        "fix_gamma": "False", 
        "momentum": "0.9"
      }, 
      "inputs": []
    }, 
    {
      "op": "null", 
      "name": "stu_res_2_block1_conv_proj_batchnorm_moving_mean", 
      "attrs": {
        "__init__": "[\"zero\", {}]", 
        "fix_gamma": "False", 
        "momentum": "0.9"
      }, 
      "inputs": []
    }, 
    {
      "op": "null", 
      "name": "stu_res_2_block1_conv_proj_batchnorm_moving_var", 
      "attrs": {
        "__init__": "[\"one\", {}]", 
        "fix_gamma": "False", 
        "momentum": "0.9"
      }, 
      "inputs": []
    }, 
    {
      "op": "BatchNorm", 
      "name": "stu_res_2_block1_conv_proj_batchnorm", 
      "attrs": {
        "fix_gamma": "False", 
        "momentum": "0.9"
      }, 
      "inputs": [[143, 0, 0], [144, 0, 0], [145, 0, 0], [146, 0, 1], [147, 0, 1]]
    }, 
    {
      "op": "null", 
      "name": "stu_res_2_block1_conv_proj_conv2d_cheap_data_scale", 
      "inputs": []
    }, 
    {
      "op": "QuantizePredict", 
      "name": "quant_stu_res_2_block1_conv_proj_conv2d_cheap", 
      "attrs": {"compute_scale": "off"}, 
      "inputs": [[143, 0, 0], [149, 0, 0]]
    }, 
    {
      "op": "null", 
      "name": "stu_res_2_block1_conv_proj_conv2d_cheap_weight", 
      "attrs": {
        "__shape__": "(24, 1, 3, 3)", 
        "kernel": "(3, 3)", 
        "no_bias": "True", 
        "num_filter": "24", 
        "num_group": "24", 
        "pad": "(1, 1)", 
        "stride": "(1, 1)"
      }, 
      "inputs": []
    }, 
    {
      "op": "ConvolutionLowbit", 
      "name": "stu_res_2_block1_conv_proj_conv2d_cheap", 
      "attrs": {
        "kernel": "(3, 3)", 
        "layout": "NCHW", 
        "cudnn_off":"True", 
        "no_bias": "true", 
        "num_filter": "24", 
        "num_group": "24", 
        "pad": "(1, 1)", 
        "stride": "(1, 1)"
      }, 
      "inputs": [[150, 0, 0], [151, 0, 0]]
    }, 
    {
      "op": "null", 
      "name": "stu_res_2_block1_conv_proj_conv2d_cheap_requant_scale", 
      "inputs": []
    }, 
    {
      "op": "RequantizePredict", 
      "name": "requant_stu_res_2_block1_conv_proj_conv2d_cheap", 
      "attrs": {
        "axis": "1", 
        "no_bias": "true"
      }, 
      "inputs": [[152, 0, 0], [153, 0, 0]]
    }, 
    {
      "op": "null", 
      "name": "stu_res_2_block1_conv_proj_batchnorm_cheap_gamma", 
      "attrs": {
        "fix_gamma": "False", 
        "momentum": "0.9"
      }, 
      "inputs": []
    }, 
    {
      "op": "null", 
      "name": "stu_res_2_block1_conv_proj_batchnorm_cheap_beta", 
      "attrs": {
        "fix_gamma": "False", 
        "momentum": "0.9"
      }, 
      "inputs": []
    }, 
    {
      "op": "null", 
      "name": "stu_res_2_block1_conv_proj_batchnorm_cheap_moving_mean", 
      "attrs": {
        "__init__": "[\"zero\", {}]", 
        "fix_gamma": "False", 
        "momentum": "0.9"
      }, 
      "inputs": []
    }, 
    {
      "op": "null", 
      "name": "stu_res_2_block1_conv_proj_batchnorm_cheap_moving_var", 
      "attrs": {
        "__init__": "[\"one\", {}]", 
        "fix_gamma": "False", 
        "momentum": "0.9"
      }, 
      "inputs": []
    }, 
    {
      "op": "BatchNorm", 
      "name": "stu_res_2_block1_conv_proj_batchnorm_cheap", 
      "attrs": {
        "fix_gamma": "False", 
        "momentum": "0.9"
      }, 
      "inputs": [[154, 0, 0], [155, 0, 0], [156, 0, 0], [157, 0, 1], [158, 0, 1]]
    }, 
    {
      "op": "Concat", 
      "name": "concat1", 
      "attrs": {
        "dim": "1", 
        "num_args": "2"
      }, 
      "inputs": [[148, 0, 0], [159, 0, 0]]
    }, 
    {
      "op": "elemwise_add", 
      "name": "_plus1", 
      "inputs": [[160, 0, 0], [91, 0, 0]]
    }, 
    {
      "op": "null", 
      "name": "stu_dconv_23_conv_sep_conv2d_data_scale", 
      "inputs": []
    }, 
    {
      "op": "QuantizePredict", 
      "name": "quant_stu_dconv_23_conv_sep_conv2d", 
      "attrs": {"compute_scale": "off"}, 
      "inputs": [[161, 0, 0], [162, 0, 0]]
    }, 
    {
      "op": "null", 
      "name": "stu_dconv_23_conv_sep_conv2d_weight", 
      "attrs": {
        "__shape__": "(208, 48, 1, 1)", 
        "kernel": "(1, 1)", 
        "no_bias": "True", 
        "num_filter": "208", 
        "num_group": "1", 
        "pad": "(0, 0)", 
        "stride": "(1, 1)"
      }, 
      "inputs": []
    }, 
    {
      "op": "ConvolutionLowbit", 
      "name": "stu_dconv_23_conv_sep_conv2d", 
      "attrs": {
        "kernel": "(1, 1)", 
        "layout": "NCHW", 
        "cudnn_off":"True", 
        "no_bias": "true", 
        "num_filter": "208", 
        "num_group": "1", 
        "pad": "(0, 0)", 
        "stride": "(1, 1)"
      }, 
      "inputs": [[163, 0, 0], [164, 0, 0]]
    }, 
    {
      "op": "null", 
      "name": "stu_dconv_23_conv_sep_conv2d_requant_scale", 
      "inputs": []
    }, 
    {
      "op": "RequantizePredict", 
      "name": "requant_stu_dconv_23_conv_sep_conv2d", 
      "attrs": {
        "axis": "1", 
        "no_bias": "true"
      }, 
      "inputs": [[165, 0, 0], [166, 0, 0]]
    }, 
    {
      "op": "null", 
      "name": "stu_dconv_23_conv_sep_batchnorm_gamma", 
      "attrs": {
        "fix_gamma": "False", 
        "momentum": "0.9"
      }, 
      "inputs": []
    }, 
    {
      "op": "null", 
      "name": "stu_dconv_23_conv_sep_batchnorm_beta", 
      "attrs": {
        "fix_gamma": "False", 
        "momentum": "0.9"
      }, 
      "inputs": []
    }, 
    {
      "op": "null", 
      "name": "stu_dconv_23_conv_sep_batchnorm_moving_mean", 
      "attrs": {
        "__init__": "[\"zero\", {}]", 
        "fix_gamma": "False", 
        "momentum": "0.9"
      }, 
      "inputs": []
    }, 
    {
      "op": "null", 
      "name": "stu_dconv_23_conv_sep_batchnorm_moving_var", 
      "attrs": {
        "__init__": "[\"one\", {}]", 
        "fix_gamma": "False", 
        "momentum": "0.9"
      }, 
      "inputs": []
    }, 
    {
      "op": "BatchNorm", 
      "name": "stu_dconv_23_conv_sep_batchnorm", 
      "attrs": {
        "fix_gamma": "False", 
        "momentum": "0.9"
      }, 
      "inputs": [[167, 0, 0], [168, 0, 0], [169, 0, 0], [170, 0, 1], [171, 0, 1]]
    }, 
    {
      "op": "null", 
      "name": "stu_dconv_23_conv_sep_Frelu_conv_data_scale", 
      "inputs": []
    }, 
    {
      "op": "QuantizePredict", 
      "name": "quant_stu_dconv_23_conv_sep_Frelu_conv", 
      "attrs": {"compute_scale": "off"}, 
      "inputs": [[172, 0, 0], [173, 0, 0]]
    }, 
    {
      "op": "null", 
      "name": "stu_dconv_23_conv_sep_Frelu_conv_weight", 
      "attrs": {
        "__shape__": "(208, 1, 3, 3)", 
        "kernel": "(3, 3)", 
        "no_bias": "True", 
        "num_filter": "208", 
        "num_group": "208", 
        "pad": "(1, 1)", 
        "stride": "(1, 1)"
      }, 
      "inputs": []
    }, 
    {
      "op": "ConvolutionLowbit", 
      "name": "stu_dconv_23_conv_sep_Frelu_conv", 
      "attrs": {
        "kernel": "(3, 3)", 
        "layout": "NCHW", 
        "cudnn_off":"True", 
        "no_bias": "true", 
        "num_filter": "208", 
        "num_group": "208", 
        "pad": "(1, 1)", 
        "stride": "(1, 1)"
      }, 
      "inputs": [[174, 0, 0], [175, 0, 0]]
    }, 
    {
      "op": "null", 
      "name": "stu_dconv_23_conv_sep_Frelu_conv_requant_scale", 
      "inputs": []
    }, 
    {
      "op": "RequantizePredict", 
      "name": "requant_stu_dconv_23_conv_sep_Frelu_conv", 
      "attrs": {
        "axis": "1", 
        "no_bias": "true"
      }, 
      "inputs": [[176, 0, 0], [177, 0, 0]]
    }, 
    {
      "op": "null", 
      "name": "stu_dconv_23_conv_sep_Frelu_batchnorm_gamma", 
      "attrs": {
        "fix_gamma": "False", 
        "momentum": "0.9"
      }, 
      "inputs": []
    }, 
    {
      "op": "null", 
      "name": "stu_dconv_23_conv_sep_Frelu_batchnorm_beta", 
      "attrs": {
        "fix_gamma": "False", 
        "momentum": "0.9"
      }, 
      "inputs": []
    }, 
    {
      "op": "null", 
      "name": "stu_dconv_23_conv_sep_Frelu_batchnorm_moving_mean", 
      "attrs": {
        "__init__": "[\"zero\", {}]", 
        "fix_gamma": "False", 
        "momentum": "0.9"
      }, 
      "inputs": []
    }, 
    {
      "op": "null", 
      "name": "stu_dconv_23_conv_sep_Frelu_batchnorm_moving_var", 
      "attrs": {
        "__init__": "[\"one\", {}]", 
        "fix_gamma": "False", 
        "momentum": "0.9"
      }, 
      "inputs": []
    }, 
    {
      "op": "BatchNorm", 
      "name": "stu_dconv_23_conv_sep_Frelu_batchnorm", 
      "attrs": {
        "fix_gamma": "False", 
        "momentum": "0.9"
      }, 
      "inputs": [[178, 0, 0], [179, 0, 0], [180, 0, 0], [181, 0, 1], [182, 0, 1]]
    }, 
    {
      "op": "broadcast_maximum", 
      "name": "stu_dconv_23_conv_sep_Frelu_max", 
      "inputs": [[172, 0, 0], [183, 0, 0]]
    }, 
    {
      "op": "null", 
      "name": "stu_dconv_23_conv_dw_conv2d_data_scale", 
      "inputs": []
    }, 
    {
      "op": "QuantizePredict", 
      "name": "quant_stu_dconv_23_conv_dw_conv2d", 
      "attrs": {"compute_scale": "off"}, 
      "inputs": [[184, 0, 0], [185, 0, 0]]
    }, 
    {
      "op": "null", 
      "name": "stu_dconv_23_conv_dw_conv2d_weight", 
      "attrs": {
        "__shape__": "(208, 1, 3, 3)", 
        "kernel": "(3, 3)", 
        "no_bias": "True", 
        "num_filter": "208", 
        "num_group": "208", 
        "pad": "(1, 1)", 
        "stride": "(2, 2)"
      }, 
      "inputs": []
    }, 
    {
      "op": "ConvolutionLowbit", 
      "name": "stu_dconv_23_conv_dw_conv2d", 
      "attrs": {
        "kernel": "(3, 3)", 
        "layout": "NCHW", 
        "cudnn_off":"True", 
        "no_bias": "true", 
        "num_filter": "208", 
        "num_group": "208", 
        "pad": "(1, 1)", 
        "stride": "(2, 2)"
      }, 
      "inputs": [[186, 0, 0], [187, 0, 0]]
    }, 
    {
      "op": "null", 
      "name": "stu_dconv_23_conv_dw_conv2d_requant_scale", 
      "inputs": []
    }, 
    {
      "op": "RequantizePredict", 
      "name": "requant_stu_dconv_23_conv_dw_conv2d", 
      "attrs": {
        "axis": "1", 
        "no_bias": "true"
      }, 
      "inputs": [[188, 0, 0], [189, 0, 0]]
    }, 
    {
      "op": "null", 
      "name": "stu_dconv_23_conv_dw_batchnorm_gamma", 
      "attrs": {
        "fix_gamma": "False", 
        "momentum": "0.9"
      }, 
      "inputs": []
    }, 
    {
      "op": "null", 
      "name": "stu_dconv_23_conv_dw_batchnorm_beta", 
      "attrs": {
        "fix_gamma": "False", 
        "momentum": "0.9"
      }, 
      "inputs": []
    }, 
    {
      "op": "null", 
      "name": "stu_dconv_23_conv_dw_batchnorm_moving_mean", 
      "attrs": {
        "__init__": "[\"zero\", {}]", 
        "fix_gamma": "False", 
        "momentum": "0.9"
      }, 
      "inputs": []
    }, 
    {
      "op": "null", 
      "name": "stu_dconv_23_conv_dw_batchnorm_moving_var", 
      "attrs": {
        "__init__": "[\"one\", {}]", 
        "fix_gamma": "False", 
        "momentum": "0.9"
      }, 
      "inputs": []
    }, 
    {
      "op": "BatchNorm", 
      "name": "stu_dconv_23_conv_dw_batchnorm", 
      "attrs": {
        "fix_gamma": "False", 
        "momentum": "0.9"
      }, 
      "inputs": [[190, 0, 0], [191, 0, 0], [192, 0, 0], [193, 0, 1], [194, 0, 1]]
    }, 
    {
      "op": "null", 
      "name": "stu_dconv_23_conv_dw_Frelu_conv_data_scale", 
      "inputs": []
    }, 
    {
      "op": "QuantizePredict", 
      "name": "quant_stu_dconv_23_conv_dw_Frelu_conv", 
      "attrs": {"compute_scale": "off"}, 
      "inputs": [[195, 0, 0], [196, 0, 0]]
    }, 
    {
      "op": "null", 
      "name": "stu_dconv_23_conv_dw_Frelu_conv_weight", 
      "attrs": {
        "__shape__": "(208, 1, 3, 3)", 
        "kernel": "(3, 3)", 
        "no_bias": "True", 
        "num_filter": "208", 
        "num_group": "208", 
        "pad": "(1, 1)", 
        "stride": "(1, 1)"
      }, 
      "inputs": []
    }, 
    {
      "op": "ConvolutionLowbit", 
      "name": "stu_dconv_23_conv_dw_Frelu_conv", 
      "attrs": {
        "kernel": "(3, 3)", 
        "layout": "NCHW", 
        "cudnn_off":"True", 
        "no_bias": "true", 
        "num_filter": "208", 
        "num_group": "208", 
        "pad": "(1, 1)", 
        "stride": "(1, 1)"
      }, 
      "inputs": [[197, 0, 0], [198, 0, 0]]
    }, 
    {
      "op": "null", 
      "name": "stu_dconv_23_conv_dw_Frelu_conv_requant_scale", 
      "inputs": []
    }, 
    {
      "op": "RequantizePredict", 
      "name": "requant_stu_dconv_23_conv_dw_Frelu_conv", 
      "attrs": {
        "axis": "1", 
        "no_bias": "true"
      }, 
      "inputs": [[199, 0, 0], [200, 0, 0]]
    }, 
    {
      "op": "null", 
      "name": "stu_dconv_23_conv_dw_Frelu_batchnorm_gamma", 
      "attrs": {
        "fix_gamma": "False", 
        "momentum": "0.9"
      }, 
      "inputs": []
    }, 
    {
      "op": "null", 
      "name": "stu_dconv_23_conv_dw_Frelu_batchnorm_beta", 
      "attrs": {
        "fix_gamma": "False", 
        "momentum": "0.9"
      }, 
      "inputs": []
    }, 
    {
      "op": "null", 
      "name": "stu_dconv_23_conv_dw_Frelu_batchnorm_moving_mean", 
      "attrs": {
        "__init__": "[\"zero\", {}]", 
        "fix_gamma": "False", 
        "momentum": "0.9"
      }, 
      "inputs": []
    }, 
    {
      "op": "null", 
      "name": "stu_dconv_23_conv_dw_Frelu_batchnorm_moving_var", 
      "attrs": {
        "__init__": "[\"one\", {}]", 
        "fix_gamma": "False", 
        "momentum": "0.9"
      }, 
      "inputs": []
    }, 
    {
      "op": "BatchNorm", 
      "name": "stu_dconv_23_conv_dw_Frelu_batchnorm", 
      "attrs": {
        "fix_gamma": "False", 
        "momentum": "0.9"
      }, 
      "inputs": [[201, 0, 0], [202, 0, 0], [203, 0, 0], [204, 0, 1], [205, 0, 1]]
    }, 
    {
      "op": "broadcast_maximum", 
      "name": "stu_dconv_23_conv_dw_Frelu_max", 
      "inputs": [[195, 0, 0], [206, 0, 0]]
    }, 
    {
      "op": "null", 
      "name": "stu_dconv_23_conv_proj_conv2d_data_scale", 
      "inputs": []
    }, 
    {
      "op": "QuantizePredict", 
      "name": "quant_stu_dconv_23_conv_proj_conv2d", 
      "attrs": {"compute_scale": "off"}, 
      "inputs": [[207, 0, 0], [208, 0, 0]]
    }, 
    {
      "op": "null", 
      "name": "stu_dconv_23_conv_proj_conv2d_weight", 
      "attrs": {
        "__shape__": "(52, 208, 1, 1)", 
        "kernel": "(1, 1)", 
        "no_bias": "True", 
        "num_filter": "52", 
        "num_group": "1", 
        "pad": "(0, 0)", 
        "stride": "(1, 1)"
      }, 
      "inputs": []
    }, 
    {
      "op": "ConvolutionLowbit", 
      "name": "stu_dconv_23_conv_proj_conv2d", 
      "attrs": {
        "kernel": "(1, 1)", 
        "layout": "NCHW", 
        "cudnn_off":"True", 
        "no_bias": "true", 
        "num_filter": "52", 
        "num_group": "1", 
        "pad": "(0, 0)", 
        "stride": "(1, 1)"
      }, 
      "inputs": [[209, 0, 0], [210, 0, 0]]
    }, 
    {
      "op": "null", 
      "name": "stu_dconv_23_conv_proj_conv2d_requant_scale", 
      "inputs": []
    }, 
    {
      "op": "RequantizePredict", 
      "name": "requant_stu_dconv_23_conv_proj_conv2d", 
      "attrs": {
        "axis": "1", 
        "no_bias": "true"
      }, 
      "inputs": [[211, 0, 0], [212, 0, 0]]
    }, 
    {
      "op": "null", 
      "name": "stu_dconv_23_conv_proj_batchnorm_gamma", 
      "attrs": {
        "fix_gamma": "False", 
        "momentum": "0.9"
      }, 
      "inputs": []
    }, 
    {
      "op": "null", 
      "name": "stu_dconv_23_conv_proj_batchnorm_beta", 
      "attrs": {
        "fix_gamma": "False", 
        "momentum": "0.9"
      }, 
      "inputs": []
    }, 
    {
      "op": "null", 
      "name": "stu_dconv_23_conv_proj_batchnorm_moving_mean", 
      "attrs": {
        "__init__": "[\"zero\", {}]", 
        "fix_gamma": "False", 
        "momentum": "0.9"
      }, 
      "inputs": []
    }, 
    {
      "op": "null", 
      "name": "stu_dconv_23_conv_proj_batchnorm_moving_var", 
      "attrs": {
        "__init__": "[\"one\", {}]", 
        "fix_gamma": "False", 
        "momentum": "0.9"
      }, 
      "inputs": []
    }, 
    {
      "op": "BatchNorm", 
      "name": "stu_dconv_23_conv_proj_batchnorm", 
      "attrs": {
        "fix_gamma": "False", 
        "momentum": "0.9"
      }, 
      "inputs": [[213, 0, 0], [214, 0, 0], [215, 0, 0], [216, 0, 1], [217, 0, 1]]
    }, 
    {
      "op": "null", 
      "name": "stu_dconv_23_conv_proj_conv2d_cheap_data_scale", 
      "inputs": []
    }, 
    {
      "op": "QuantizePredict", 
      "name": "quant_stu_dconv_23_conv_proj_conv2d_cheap", 
      "attrs": {"compute_scale": "off"}, 
      "inputs": [[213, 0, 0], [219, 0, 0]]
    }, 
    {
      "op": "null", 
      "name": "stu_dconv_23_conv_proj_conv2d_cheap_weight", 
      "attrs": {
        "__shape__": "(52, 1, 3, 3)", 
        "kernel": "(3, 3)", 
        "no_bias": "True", 
        "num_filter": "52", 
        "num_group": "52", 
        "pad": "(1, 1)", 
        "stride": "(1, 1)"
      }, 
      "inputs": []
    }, 
    {
      "op": "ConvolutionLowbit", 
      "name": "stu_dconv_23_conv_proj_conv2d_cheap", 
      "attrs": {
        "kernel": "(3, 3)", 
        "layout": "NCHW", 
        "cudnn_off":"True", 
        "no_bias": "true", 
        "num_filter": "52", 
        "num_group": "52", 
        "pad": "(1, 1)", 
        "stride": "(1, 1)"
      }, 
      "inputs": [[220, 0, 0], [221, 0, 0]]
    }, 
    {
      "op": "null", 
      "name": "stu_dconv_23_conv_proj_conv2d_cheap_requant_scale", 
      "inputs": []
    }, 
    {
      "op": "RequantizePredict", 
      "name": "requant_stu_dconv_23_conv_proj_conv2d_cheap", 
      "attrs": {
        "axis": "1", 
        "no_bias": "true"
      }, 
      "inputs": [[222, 0, 0], [223, 0, 0]]
    }, 
    {
      "op": "null", 
      "name": "stu_dconv_23_conv_proj_batchnorm_cheap_gamma", 
      "attrs": {
        "fix_gamma": "False", 
        "momentum": "0.9"
      }, 
      "inputs": []
    }, 
    {
      "op": "null", 
      "name": "stu_dconv_23_conv_proj_batchnorm_cheap_beta", 
      "attrs": {
        "fix_gamma": "False", 
        "momentum": "0.9"
      }, 
      "inputs": []
    }, 
    {
      "op": "null", 
      "name": "stu_dconv_23_conv_proj_batchnorm_cheap_moving_mean", 
      "attrs": {
        "__init__": "[\"zero\", {}]", 
        "fix_gamma": "False", 
        "momentum": "0.9"
      }, 
      "inputs": []
    }, 
    {
      "op": "null", 
      "name": "stu_dconv_23_conv_proj_batchnorm_cheap_moving_var", 
      "attrs": {
        "__init__": "[\"one\", {}]", 
        "fix_gamma": "False", 
        "momentum": "0.9"
      }, 
      "inputs": []
    }, 
    {
      "op": "BatchNorm", 
      "name": "stu_dconv_23_conv_proj_batchnorm_cheap", 
      "attrs": {
        "fix_gamma": "False", 
        "momentum": "0.9"
      }, 
      "inputs": [[224, 0, 0], [225, 0, 0], [226, 0, 0], [227, 0, 1], [228, 0, 1]]
    }, 
    {
      "op": "Concat", 
      "name": "concat2", 
      "attrs": {
        "dim": "1", 
        "num_args": "2"
      }, 
      "inputs": [[218, 0, 0], [229, 0, 0]]
    }, 
    {
      "op": "null", 
      "name": "stu_res_3_block0_conv_sep_conv2d_data_scale", 
      "inputs": []
    }, 
    {
      "op": "QuantizePredict", 
      "name": "quant_stu_res_3_block0_conv_sep_conv2d", 
      "attrs": {"compute_scale": "off"}, 
      "inputs": [[230, 0, 0], [231, 0, 0]]
    }, 
    {
      "op": "null", 
      "name": "stu_res_3_block0_conv_sep_conv2d_weight", 
      "attrs": {
        "__shape__": "(208, 104, 1, 1)", 
        "kernel": "(1, 1)", 
        "no_bias": "True", 
        "num_filter": "208", 
        "num_group": "1", 
        "pad": "(0, 0)", 
        "stride": "(1, 1)"
      }, 
      "inputs": []
    }, 
    {
      "op": "ConvolutionLowbit", 
      "name": "stu_res_3_block0_conv_sep_conv2d", 
      "attrs": {
        "kernel": "(1, 1)", 
        "layout": "NCHW", 
        "cudnn_off":"True", 
        "no_bias": "true", 
        "num_filter": "208", 
        "num_group": "1", 
        "pad": "(0, 0)", 
        "stride": "(1, 1)"
      }, 
      "inputs": [[232, 0, 0], [233, 0, 0]]
    }, 
    {
      "op": "null", 
      "name": "stu_res_3_block0_conv_sep_conv2d_requant_scale", 
      "inputs": []
    }, 
    {
      "op": "RequantizePredict", 
      "name": "requant_stu_res_3_block0_conv_sep_conv2d", 
      "attrs": {
        "axis": "1", 
        "no_bias": "true"
      }, 
      "inputs": [[234, 0, 0], [235, 0, 0]]
    }, 
    {
      "op": "null", 
      "name": "stu_res_3_block0_conv_sep_batchnorm_gamma", 
      "attrs": {
        "fix_gamma": "False", 
        "momentum": "0.9"
      }, 
      "inputs": []
    }, 
    {
      "op": "null", 
      "name": "stu_res_3_block0_conv_sep_batchnorm_beta", 
      "attrs": {
        "fix_gamma": "False", 
        "momentum": "0.9"
      }, 
      "inputs": []
    }, 
    {
      "op": "null", 
      "name": "stu_res_3_block0_conv_sep_batchnorm_moving_mean", 
      "attrs": {
        "__init__": "[\"zero\", {}]", 
        "fix_gamma": "False", 
        "momentum": "0.9"
      }, 
      "inputs": []
    }, 
    {
      "op": "null", 
      "name": "stu_res_3_block0_conv_sep_batchnorm_moving_var", 
      "attrs": {
        "__init__": "[\"one\", {}]", 
        "fix_gamma": "False", 
        "momentum": "0.9"
      }, 
      "inputs": []
    }, 
    {
      "op": "BatchNorm", 
      "name": "stu_res_3_block0_conv_sep_batchnorm", 
      "attrs": {
        "fix_gamma": "False", 
        "momentum": "0.9"
      }, 
      "inputs": [[236, 0, 0], [237, 0, 0], [238, 0, 0], [239, 0, 1], [240, 0, 1]]
    }, 
    {
      "op": "null", 
      "name": "stu_res_3_block0_conv_sep_Frelu_conv_data_scale", 
      "inputs": []
    }, 
    {
      "op": "QuantizePredict", 
      "name": "quant_stu_res_3_block0_conv_sep_Frelu_conv", 
      "attrs": {"compute_scale": "off"}, 
      "inputs": [[241, 0, 0], [242, 0, 0]]
    }, 
    {
      "op": "null", 
      "name": "stu_res_3_block0_conv_sep_Frelu_conv_weight", 
      "attrs": {
        "__shape__": "(208, 1, 3, 3)", 
        "kernel": "(3, 3)", 
        "no_bias": "True", 
        "num_filter": "208", 
        "num_group": "208", 
        "pad": "(1, 1)", 
        "stride": "(1, 1)"
      }, 
      "inputs": []
    }, 
    {
      "op": "ConvolutionLowbit", 
      "name": "stu_res_3_block0_conv_sep_Frelu_conv", 
      "attrs": {
        "kernel": "(3, 3)", 
        "layout": "NCHW", 
        "cudnn_off":"True", 
        "no_bias": "true", 
        "num_filter": "208", 
        "num_group": "208", 
        "pad": "(1, 1)", 
        "stride": "(1, 1)"
      }, 
      "inputs": [[243, 0, 0], [244, 0, 0]]
    }, 
    {
      "op": "null", 
      "name": "stu_res_3_block0_conv_sep_Frelu_conv_requant_scale", 
      "inputs": []
    }, 
    {
      "op": "RequantizePredict", 
      "name": "requant_stu_res_3_block0_conv_sep_Frelu_conv", 
      "attrs": {
        "axis": "1", 
        "no_bias": "true"
      }, 
      "inputs": [[245, 0, 0], [246, 0, 0]]
    }, 
    {
      "op": "null", 
      "name": "stu_res_3_block0_conv_sep_Frelu_batchnorm_gamma", 
      "attrs": {
        "fix_gamma": "False", 
        "momentum": "0.9"
      }, 
      "inputs": []
    }, 
    {
      "op": "null", 
      "name": "stu_res_3_block0_conv_sep_Frelu_batchnorm_beta", 
      "attrs": {
        "fix_gamma": "False", 
        "momentum": "0.9"
      }, 
      "inputs": []
    }, 
    {
      "op": "null", 
      "name": "stu_res_3_block0_conv_sep_Frelu_batchnorm_moving_mean", 
      "attrs": {
        "__init__": "[\"zero\", {}]", 
        "fix_gamma": "False", 
        "momentum": "0.9"
      }, 
      "inputs": []
    }, 
    {
      "op": "null", 
      "name": "stu_res_3_block0_conv_sep_Frelu_batchnorm_moving_var", 
      "attrs": {
        "__init__": "[\"one\", {}]", 
        "fix_gamma": "False", 
        "momentum": "0.9"
      }, 
      "inputs": []
    }, 
    {
      "op": "BatchNorm", 
      "name": "stu_res_3_block0_conv_sep_Frelu_batchnorm", 
      "attrs": {
        "fix_gamma": "False", 
        "momentum": "0.9"
      }, 
      "inputs": [[247, 0, 0], [248, 0, 0], [249, 0, 0], [250, 0, 1], [251, 0, 1]]
    }, 
    {
      "op": "broadcast_maximum", 
      "name": "stu_res_3_block0_conv_sep_Frelu_max", 
      "inputs": [[241, 0, 0], [252, 0, 0]]
    }, 
    {
      "op": "null", 
      "name": "stu_res_3_block0_conv_dw_conv2d_data_scale", 
      "inputs": []
    }, 
    {
      "op": "QuantizePredict", 
      "name": "quant_stu_res_3_block0_conv_dw_conv2d", 
      "attrs": {"compute_scale": "off"}, 
      "inputs": [[253, 0, 0], [254, 0, 0]]
    }, 
    {
      "op": "null", 
      "name": "stu_res_3_block0_conv_dw_conv2d_weight", 
      "attrs": {
        "__shape__": "(208, 1, 3, 3)", 
        "kernel": "(3, 3)", 
        "no_bias": "True", 
        "num_filter": "208", 
        "num_group": "208", 
        "pad": "(1, 1)", 
        "stride": "(1, 1)"
      }, 
      "inputs": []
    }, 
    {
      "op": "ConvolutionLowbit", 
      "name": "stu_res_3_block0_conv_dw_conv2d", 
      "attrs": {
        "kernel": "(3, 3)", 
        "layout": "NCHW", 
        "cudnn_off":"True", 
        "no_bias": "true", 
        "num_filter": "208", 
        "num_group": "208", 
        "pad": "(1, 1)", 
        "stride": "(1, 1)"
      }, 
      "inputs": [[255, 0, 0], [256, 0, 0]]
    }, 
    {
      "op": "null", 
      "name": "stu_res_3_block0_conv_dw_conv2d_requant_scale", 
      "inputs": []
    }, 
    {
      "op": "RequantizePredict", 
      "name": "requant_stu_res_3_block0_conv_dw_conv2d", 
      "attrs": {
        "axis": "1", 
        "no_bias": "true"
      }, 
      "inputs": [[257, 0, 0], [258, 0, 0]]
    }, 
    {
      "op": "null", 
      "name": "stu_res_3_block0_conv_dw_batchnorm_gamma", 
      "attrs": {
        "fix_gamma": "False", 
        "momentum": "0.9"
      }, 
      "inputs": []
    }, 
    {
      "op": "null", 
      "name": "stu_res_3_block0_conv_dw_batchnorm_beta", 
      "attrs": {
        "fix_gamma": "False", 
        "momentum": "0.9"
      }, 
      "inputs": []
    }, 
    {
      "op": "null", 
      "name": "stu_res_3_block0_conv_dw_batchnorm_moving_mean", 
      "attrs": {
        "__init__": "[\"zero\", {}]", 
        "fix_gamma": "False", 
        "momentum": "0.9"
      }, 
      "inputs": []
    }, 
    {
      "op": "null", 
      "name": "stu_res_3_block0_conv_dw_batchnorm_moving_var", 
      "attrs": {
        "__init__": "[\"one\", {}]", 
        "fix_gamma": "False", 
        "momentum": "0.9"
      }, 
      "inputs": []
    }, 
    {
      "op": "BatchNorm", 
      "name": "stu_res_3_block0_conv_dw_batchnorm", 
      "attrs": {
        "fix_gamma": "False", 
        "momentum": "0.9"
      }, 
      "inputs": [[259, 0, 0], [260, 0, 0], [261, 0, 0], [262, 0, 1], [263, 0, 1]]
    }, 
    {
      "op": "null", 
      "name": "stu_res_3_block0_conv_dw_Frelu_conv_data_scale", 
      "inputs": []
    }, 
    {
      "op": "QuantizePredict", 
      "name": "quant_stu_res_3_block0_conv_dw_Frelu_conv", 
      "attrs": {"compute_scale": "off"}, 
      "inputs": [[264, 0, 0], [265, 0, 0]]
    }, 
    {
      "op": "null", 
      "name": "stu_res_3_block0_conv_dw_Frelu_conv_weight", 
      "attrs": {
        "__shape__": "(208, 1, 3, 3)", 
        "kernel": "(3, 3)", 
        "no_bias": "True", 
        "num_filter": "208", 
        "num_group": "208", 
        "pad": "(1, 1)", 
        "stride": "(1, 1)"
      }, 
      "inputs": []
    }, 
    {
      "op": "ConvolutionLowbit", 
      "name": "stu_res_3_block0_conv_dw_Frelu_conv", 
      "attrs": {
        "kernel": "(3, 3)", 
        "layout": "NCHW", 
        "cudnn_off":"True", 
        "no_bias": "true", 
        "num_filter": "208", 
        "num_group": "208", 
        "pad": "(1, 1)", 
        "stride": "(1, 1)"
      }, 
      "inputs": [[266, 0, 0], [267, 0, 0]]
    }, 
    {
      "op": "null", 
      "name": "stu_res_3_block0_conv_dw_Frelu_conv_requant_scale", 
      "inputs": []
    }, 
    {
      "op": "RequantizePredict", 
      "name": "requant_stu_res_3_block0_conv_dw_Frelu_conv", 
      "attrs": {
        "axis": "1", 
        "no_bias": "true"
      }, 
      "inputs": [[268, 0, 0], [269, 0, 0]]
    }, 
    {
      "op": "null", 
      "name": "stu_res_3_block0_conv_dw_Frelu_batchnorm_gamma", 
      "attrs": {
        "fix_gamma": "False", 
        "momentum": "0.9"
      }, 
      "inputs": []
    }, 
    {
      "op": "null", 
      "name": "stu_res_3_block0_conv_dw_Frelu_batchnorm_beta", 
      "attrs": {
        "fix_gamma": "False", 
        "momentum": "0.9"
      }, 
      "inputs": []
    }, 
    {
      "op": "null", 
      "name": "stu_res_3_block0_conv_dw_Frelu_batchnorm_moving_mean", 
      "attrs": {
        "__init__": "[\"zero\", {}]", 
        "fix_gamma": "False", 
        "momentum": "0.9"
      }, 
      "inputs": []
    }, 
    {
      "op": "null", 
      "name": "stu_res_3_block0_conv_dw_Frelu_batchnorm_moving_var", 
      "attrs": {
        "__init__": "[\"one\", {}]", 
        "fix_gamma": "False", 
        "momentum": "0.9"
      }, 
      "inputs": []
    }, 
    {
      "op": "BatchNorm", 
      "name": "stu_res_3_block0_conv_dw_Frelu_batchnorm", 
      "attrs": {
        "fix_gamma": "False", 
        "momentum": "0.9"
      }, 
      "inputs": [[270, 0, 0], [271, 0, 0], [272, 0, 0], [273, 0, 1], [274, 0, 1]]
    }, 
    {
      "op": "broadcast_maximum", 
      "name": "stu_res_3_block0_conv_dw_Frelu_max", 
      "inputs": [[264, 0, 0], [275, 0, 0]]
    }, 
    {
      "op": "null", 
      "name": "stu_res_3_block0_conv_proj_conv2d_data_scale", 
      "inputs": []
    }, 
    {
      "op": "QuantizePredict", 
      "name": "quant_stu_res_3_block0_conv_proj_conv2d", 
      "attrs": {"compute_scale": "off"}, 
      "inputs": [[276, 0, 0], [277, 0, 0]]
    }, 
    {
      "op": "null", 
      "name": "stu_res_3_block0_conv_proj_conv2d_weight", 
      "attrs": {
        "__shape__": "(52, 208, 1, 1)", 
        "kernel": "(1, 1)", 
        "no_bias": "True", 
        "num_filter": "52", 
        "num_group": "1", 
        "pad": "(0, 0)", 
        "stride": "(1, 1)"
      }, 
      "inputs": []
    }, 
    {
      "op": "ConvolutionLowbit", 
      "name": "stu_res_3_block0_conv_proj_conv2d", 
      "attrs": {
        "kernel": "(1, 1)", 
        "layout": "NCHW", 
        "cudnn_off":"True", 
        "no_bias": "true", 
        "num_filter": "52", 
        "num_group": "1", 
        "pad": "(0, 0)", 
        "stride": "(1, 1)"
      }, 
      "inputs": [[278, 0, 0], [279, 0, 0]]
    }, 
    {
      "op": "null", 
      "name": "stu_res_3_block0_conv_proj_conv2d_requant_scale", 
      "inputs": []
    }, 
    {
      "op": "RequantizePredict", 
      "name": "requant_stu_res_3_block0_conv_proj_conv2d", 
      "attrs": {
        "axis": "1", 
        "no_bias": "true"
      }, 
      "inputs": [[280, 0, 0], [281, 0, 0]]
    }, 
    {
      "op": "null", 
      "name": "stu_res_3_block0_conv_proj_batchnorm_gamma", 
      "attrs": {
        "fix_gamma": "False", 
        "momentum": "0.9"
      }, 
      "inputs": []
    }, 
    {
      "op": "null", 
      "name": "stu_res_3_block0_conv_proj_batchnorm_beta", 
      "attrs": {
        "fix_gamma": "False", 
        "momentum": "0.9"
      }, 
      "inputs": []
    }, 
    {
      "op": "null", 
      "name": "stu_res_3_block0_conv_proj_batchnorm_moving_mean", 
      "attrs": {
        "__init__": "[\"zero\", {}]", 
        "fix_gamma": "False", 
        "momentum": "0.9"
      }, 
      "inputs": []
    }, 
    {
      "op": "null", 
      "name": "stu_res_3_block0_conv_proj_batchnorm_moving_var", 
      "attrs": {
        "__init__": "[\"one\", {}]", 
        "fix_gamma": "False", 
        "momentum": "0.9"
      }, 
      "inputs": []
    }, 
    {
      "op": "BatchNorm", 
      "name": "stu_res_3_block0_conv_proj_batchnorm", 
      "attrs": {
        "fix_gamma": "False", 
        "momentum": "0.9"
      }, 
      "inputs": [[282, 0, 0], [283, 0, 0], [284, 0, 0], [285, 0, 1], [286, 0, 1]]
    }, 
    {
      "op": "null", 
      "name": "stu_res_3_block0_conv_proj_conv2d_cheap_data_scale", 
      "inputs": []
    }, 
    {
      "op": "QuantizePredict", 
      "name": "quant_stu_res_3_block0_conv_proj_conv2d_cheap", 
      "attrs": {"compute_scale": "off"}, 
      "inputs": [[282, 0, 0], [288, 0, 0]]
    }, 
    {
      "op": "null", 
      "name": "stu_res_3_block0_conv_proj_conv2d_cheap_weight", 
      "attrs": {
        "__shape__": "(52, 1, 3, 3)", 
        "kernel": "(3, 3)", 
        "no_bias": "True", 
        "num_filter": "52", 
        "num_group": "52", 
        "pad": "(1, 1)", 
        "stride": "(1, 1)"
      }, 
      "inputs": []
    }, 
    {
      "op": "ConvolutionLowbit", 
      "name": "stu_res_3_block0_conv_proj_conv2d_cheap", 
      "attrs": {
        "kernel": "(3, 3)", 
        "layout": "NCHW", 
        "cudnn_off":"True", 
        "no_bias": "true", 
        "num_filter": "52", 
        "num_group": "52", 
        "pad": "(1, 1)", 
        "stride": "(1, 1)"
      }, 
      "inputs": [[289, 0, 0], [290, 0, 0]]
    }, 
    {
      "op": "null", 
      "name": "stu_res_3_block0_conv_proj_conv2d_cheap_requant_scale", 
      "inputs": []
    }, 
    {
      "op": "RequantizePredict", 
      "name": "requant_stu_res_3_block0_conv_proj_conv2d_cheap", 
      "attrs": {
        "axis": "1", 
        "no_bias": "true"
      }, 
      "inputs": [[291, 0, 0], [292, 0, 0]]
    }, 
    {
      "op": "null", 
      "name": "stu_res_3_block0_conv_proj_batchnorm_cheap_gamma", 
      "attrs": {
        "fix_gamma": "False", 
        "momentum": "0.9"
      }, 
      "inputs": []
    }, 
    {
      "op": "null", 
      "name": "stu_res_3_block0_conv_proj_batchnorm_cheap_beta", 
      "attrs": {
        "fix_gamma": "False", 
        "momentum": "0.9"
      }, 
      "inputs": []
    }, 
    {
      "op": "null", 
      "name": "stu_res_3_block0_conv_proj_batchnorm_cheap_moving_mean", 
      "attrs": {
        "__init__": "[\"zero\", {}]", 
        "fix_gamma": "False", 
        "momentum": "0.9"
      }, 
      "inputs": []
    }, 
    {
      "op": "null", 
      "name": "stu_res_3_block0_conv_proj_batchnorm_cheap_moving_var", 
      "attrs": {
        "__init__": "[\"one\", {}]", 
        "fix_gamma": "False", 
        "momentum": "0.9"
      }, 
      "inputs": []
    }, 
    {
      "op": "BatchNorm", 
      "name": "stu_res_3_block0_conv_proj_batchnorm_cheap", 
      "attrs": {
        "fix_gamma": "False", 
        "momentum": "0.9"
      }, 
      "inputs": [[293, 0, 0], [294, 0, 0], [295, 0, 0], [296, 0, 1], [297, 0, 1]]
    }, 
    {
      "op": "Concat", 
      "name": "concat3", 
      "attrs": {
        "dim": "1", 
        "num_args": "2"
      }, 
      "inputs": [[287, 0, 0], [298, 0, 0]]
    }, 
    {
      "op": "elemwise_add", 
      "name": "_plus2", 
      "inputs": [[299, 0, 0], [230, 0, 0]]
    }, 
    {
      "op": "null", 
      "name": "stu_res_3_block1_conv_sep_conv2d_data_scale", 
      "inputs": []
    }, 
    {
      "op": "QuantizePredict", 
      "name": "quant_stu_res_3_block1_conv_sep_conv2d", 
      "attrs": {"compute_scale": "off"}, 
      "inputs": [[300, 0, 0], [301, 0, 0]]
    }, 
    {
      "op": "null", 
      "name": "stu_res_3_block1_conv_sep_conv2d_weight", 
      "attrs": {
        "__shape__": "(208, 104, 1, 1)", 
        "kernel": "(1, 1)", 
        "no_bias": "True", 
        "num_filter": "208", 
        "num_group": "1", 
        "pad": "(0, 0)", 
        "stride": "(1, 1)"
      }, 
      "inputs": []
    }, 
    {
      "op": "ConvolutionLowbit", 
      "name": "stu_res_3_block1_conv_sep_conv2d", 
      "attrs": {
        "kernel": "(1, 1)", 
        "layout": "NCHW", 
        "cudnn_off":"True", 
        "no_bias": "true", 
        "num_filter": "208", 
        "num_group": "1", 
        "pad": "(0, 0)", 
        "stride": "(1, 1)"
      }, 
      "inputs": [[302, 0, 0], [303, 0, 0]]
    }, 
    {
      "op": "null", 
      "name": "stu_res_3_block1_conv_sep_conv2d_requant_scale", 
      "inputs": []
    }, 
    {
      "op": "RequantizePredict", 
      "name": "requant_stu_res_3_block1_conv_sep_conv2d", 
      "attrs": {
        "axis": "1", 
        "no_bias": "true"
      }, 
      "inputs": [[304, 0, 0], [305, 0, 0]]
    }, 
    {
      "op": "null", 
      "name": "stu_res_3_block1_conv_sep_batchnorm_gamma", 
      "attrs": {
        "fix_gamma": "False", 
        "momentum": "0.9"
      }, 
      "inputs": []
    }, 
    {
      "op": "null", 
      "name": "stu_res_3_block1_conv_sep_batchnorm_beta", 
      "attrs": {
        "fix_gamma": "False", 
        "momentum": "0.9"
      }, 
      "inputs": []
    }, 
    {
      "op": "null", 
      "name": "stu_res_3_block1_conv_sep_batchnorm_moving_mean", 
      "attrs": {
        "__init__": "[\"zero\", {}]", 
        "fix_gamma": "False", 
        "momentum": "0.9"
      }, 
      "inputs": []
    }, 
    {
      "op": "null", 
      "name": "stu_res_3_block1_conv_sep_batchnorm_moving_var", 
      "attrs": {
        "__init__": "[\"one\", {}]", 
        "fix_gamma": "False", 
        "momentum": "0.9"
      }, 
      "inputs": []
    }, 
    {
      "op": "BatchNorm", 
      "name": "stu_res_3_block1_conv_sep_batchnorm", 
      "attrs": {
        "fix_gamma": "False", 
        "momentum": "0.9"
      }, 
      "inputs": [[306, 0, 0], [307, 0, 0], [308, 0, 0], [309, 0, 1], [310, 0, 1]]
    }, 
    {
      "op": "null", 
      "name": "stu_res_3_block1_conv_sep_Frelu_conv_data_scale", 
      "inputs": []
    }, 
    {
      "op": "QuantizePredict", 
      "name": "quant_stu_res_3_block1_conv_sep_Frelu_conv", 
      "attrs": {"compute_scale": "off"}, 
      "inputs": [[311, 0, 0], [312, 0, 0]]
    }, 
    {
      "op": "null", 
      "name": "stu_res_3_block1_conv_sep_Frelu_conv_weight", 
      "attrs": {
        "__shape__": "(208, 1, 3, 3)", 
        "kernel": "(3, 3)", 
        "no_bias": "True", 
        "num_filter": "208", 
        "num_group": "208", 
        "pad": "(1, 1)", 
        "stride": "(1, 1)"
      }, 
      "inputs": []
    }, 
    {
      "op": "ConvolutionLowbit", 
      "name": "stu_res_3_block1_conv_sep_Frelu_conv", 
      "attrs": {
        "kernel": "(3, 3)", 
        "layout": "NCHW", 
        "cudnn_off":"True", 
        "no_bias": "true", 
        "num_filter": "208", 
        "num_group": "208", 
        "pad": "(1, 1)", 
        "stride": "(1, 1)"
      }, 
      "inputs": [[313, 0, 0], [314, 0, 0]]
    }, 
    {
      "op": "null", 
      "name": "stu_res_3_block1_conv_sep_Frelu_conv_requant_scale", 
      "inputs": []
    }, 
    {
      "op": "RequantizePredict", 
      "name": "requant_stu_res_3_block1_conv_sep_Frelu_conv", 
      "attrs": {
        "axis": "1", 
        "no_bias": "true"
      }, 
      "inputs": [[315, 0, 0], [316, 0, 0]]
    }, 
    {
      "op": "null", 
      "name": "stu_res_3_block1_conv_sep_Frelu_batchnorm_gamma", 
      "attrs": {
        "fix_gamma": "False", 
        "momentum": "0.9"
      }, 
      "inputs": []
    }, 
    {
      "op": "null", 
      "name": "stu_res_3_block1_conv_sep_Frelu_batchnorm_beta", 
      "attrs": {
        "fix_gamma": "False", 
        "momentum": "0.9"
      }, 
      "inputs": []
    }, 
    {
      "op": "null", 
      "name": "stu_res_3_block1_conv_sep_Frelu_batchnorm_moving_mean", 
      "attrs": {
        "__init__": "[\"zero\", {}]", 
        "fix_gamma": "False", 
        "momentum": "0.9"
      }, 
      "inputs": []
    }, 
    {
      "op": "null", 
      "name": "stu_res_3_block1_conv_sep_Frelu_batchnorm_moving_var", 
      "attrs": {
        "__init__": "[\"one\", {}]", 
        "fix_gamma": "False", 
        "momentum": "0.9"
      }, 
      "inputs": []
    }, 
    {
      "op": "BatchNorm", 
      "name": "stu_res_3_block1_conv_sep_Frelu_batchnorm", 
      "attrs": {
        "fix_gamma": "False", 
        "momentum": "0.9"
      }, 
      "inputs": [[317, 0, 0], [318, 0, 0], [319, 0, 0], [320, 0, 1], [321, 0, 1]]
    }, 
    {
      "op": "broadcast_maximum", 
      "name": "stu_res_3_block1_conv_sep_Frelu_max", 
      "inputs": [[311, 0, 0], [322, 0, 0]]
    }, 
    {
      "op": "null", 
      "name": "stu_res_3_block1_conv_dw_conv2d_data_scale", 
      "inputs": []
    }, 
    {
      "op": "QuantizePredict", 
      "name": "quant_stu_res_3_block1_conv_dw_conv2d", 
      "attrs": {"compute_scale": "off"}, 
      "inputs": [[323, 0, 0], [324, 0, 0]]
    }, 
    {
      "op": "null", 
      "name": "stu_res_3_block1_conv_dw_conv2d_weight", 
      "attrs": {
        "__shape__": "(208, 1, 3, 3)", 
        "kernel": "(3, 3)", 
        "no_bias": "True", 
        "num_filter": "208", 
        "num_group": "208", 
        "pad": "(1, 1)", 
        "stride": "(1, 1)"
      }, 
      "inputs": []
    }, 
    {
      "op": "ConvolutionLowbit", 
      "name": "stu_res_3_block1_conv_dw_conv2d", 
      "attrs": {
        "kernel": "(3, 3)", 
        "layout": "NCHW", 
        "cudnn_off":"True", 
        "no_bias": "true", 
        "num_filter": "208", 
        "num_group": "208", 
        "pad": "(1, 1)", 
        "stride": "(1, 1)"
      }, 
      "inputs": [[325, 0, 0], [326, 0, 0]]
    }, 
    {
      "op": "null", 
      "name": "stu_res_3_block1_conv_dw_conv2d_requant_scale", 
      "inputs": []
    }, 
    {
      "op": "RequantizePredict", 
      "name": "requant_stu_res_3_block1_conv_dw_conv2d", 
      "attrs": {
        "axis": "1", 
        "no_bias": "true"
      }, 
      "inputs": [[327, 0, 0], [328, 0, 0]]
    }, 
    {
      "op": "null", 
      "name": "stu_res_3_block1_conv_dw_batchnorm_gamma", 
      "attrs": {
        "fix_gamma": "False", 
        "momentum": "0.9"
      }, 
      "inputs": []
    }, 
    {
      "op": "null", 
      "name": "stu_res_3_block1_conv_dw_batchnorm_beta", 
      "attrs": {
        "fix_gamma": "False", 
        "momentum": "0.9"
      }, 
      "inputs": []
    }, 
    {
      "op": "null", 
      "name": "stu_res_3_block1_conv_dw_batchnorm_moving_mean", 
      "attrs": {
        "__init__": "[\"zero\", {}]", 
        "fix_gamma": "False", 
        "momentum": "0.9"
      }, 
      "inputs": []
    }, 
    {
      "op": "null", 
      "name": "stu_res_3_block1_conv_dw_batchnorm_moving_var", 
      "attrs": {
        "__init__": "[\"one\", {}]", 
        "fix_gamma": "False", 
        "momentum": "0.9"
      }, 
      "inputs": []
    }, 
    {
      "op": "BatchNorm", 
      "name": "stu_res_3_block1_conv_dw_batchnorm", 
      "attrs": {
        "fix_gamma": "False", 
        "momentum": "0.9"
      }, 
      "inputs": [[329, 0, 0], [330, 0, 0], [331, 0, 0], [332, 0, 1], [333, 0, 1]]
    }, 
    {
      "op": "null", 
      "name": "stu_res_3_block1_conv_dw_Frelu_conv_data_scale", 
      "inputs": []
    }, 
    {
      "op": "QuantizePredict", 
      "name": "quant_stu_res_3_block1_conv_dw_Frelu_conv", 
      "attrs": {"compute_scale": "off"}, 
      "inputs": [[334, 0, 0], [335, 0, 0]]
    }, 
    {
      "op": "null", 
      "name": "stu_res_3_block1_conv_dw_Frelu_conv_weight", 
      "attrs": {
        "__shape__": "(208, 1, 3, 3)", 
        "kernel": "(3, 3)", 
        "no_bias": "True", 
        "num_filter": "208", 
        "num_group": "208", 
        "pad": "(1, 1)", 
        "stride": "(1, 1)"
      }, 
      "inputs": []
    }, 
    {
      "op": "ConvolutionLowbit", 
      "name": "stu_res_3_block1_conv_dw_Frelu_conv", 
      "attrs": {
        "kernel": "(3, 3)", 
        "layout": "NCHW", 
        "cudnn_off":"True", 
        "no_bias": "true", 
        "num_filter": "208", 
        "num_group": "208", 
        "pad": "(1, 1)", 
        "stride": "(1, 1)"
      }, 
      "inputs": [[336, 0, 0], [337, 0, 0]]
    }, 
    {
      "op": "null", 
      "name": "stu_res_3_block1_conv_dw_Frelu_conv_requant_scale", 
      "inputs": []
    }, 
    {
      "op": "RequantizePredict", 
      "name": "requant_stu_res_3_block1_conv_dw_Frelu_conv", 
      "attrs": {
        "axis": "1", 
        "no_bias": "true"
      }, 
      "inputs": [[338, 0, 0], [339, 0, 0]]
    }, 
    {
      "op": "null", 
      "name": "stu_res_3_block1_conv_dw_Frelu_batchnorm_gamma", 
      "attrs": {
        "fix_gamma": "False", 
        "momentum": "0.9"
      }, 
      "inputs": []
    }, 
    {
      "op": "null", 
      "name": "stu_res_3_block1_conv_dw_Frelu_batchnorm_beta", 
      "attrs": {
        "fix_gamma": "False", 
        "momentum": "0.9"
      }, 
      "inputs": []
    }, 
    {
      "op": "null", 
      "name": "stu_res_3_block1_conv_dw_Frelu_batchnorm_moving_mean", 
      "attrs": {
        "__init__": "[\"zero\", {}]", 
        "fix_gamma": "False", 
        "momentum": "0.9"
      }, 
      "inputs": []
    }, 
    {
      "op": "null", 
      "name": "stu_res_3_block1_conv_dw_Frelu_batchnorm_moving_var", 
      "attrs": {
        "__init__": "[\"one\", {}]", 
        "fix_gamma": "False", 
        "momentum": "0.9"
      }, 
      "inputs": []
    }, 
    {
      "op": "BatchNorm", 
      "name": "stu_res_3_block1_conv_dw_Frelu_batchnorm", 
      "attrs": {
        "fix_gamma": "False", 
        "momentum": "0.9"
      }, 
      "inputs": [[340, 0, 0], [341, 0, 0], [342, 0, 0], [343, 0, 1], [344, 0, 1]]
    }, 
    {
      "op": "broadcast_maximum", 
      "name": "stu_res_3_block1_conv_dw_Frelu_max", 
      "inputs": [[334, 0, 0], [345, 0, 0]]
    }, 
    {
      "op": "null", 
      "name": "stu_res_3_block1_conv_proj_conv2d_data_scale", 
      "inputs": []
    }, 
    {
      "op": "QuantizePredict", 
      "name": "quant_stu_res_3_block1_conv_proj_conv2d", 
      "attrs": {"compute_scale": "off"}, 
      "inputs": [[346, 0, 0], [347, 0, 0]]
    }, 
    {
      "op": "null", 
      "name": "stu_res_3_block1_conv_proj_conv2d_weight", 
      "attrs": {
        "__shape__": "(52, 208, 1, 1)", 
        "kernel": "(1, 1)", 
        "no_bias": "True", 
        "num_filter": "52", 
        "num_group": "1", 
        "pad": "(0, 0)", 
        "stride": "(1, 1)"
      }, 
      "inputs": []
    }, 
    {
      "op": "ConvolutionLowbit", 
      "name": "stu_res_3_block1_conv_proj_conv2d", 
      "attrs": {
        "kernel": "(1, 1)", 
        "layout": "NCHW", 
        "cudnn_off":"True", 
        "no_bias": "true", 
        "num_filter": "52", 
        "num_group": "1", 
        "pad": "(0, 0)", 
        "stride": "(1, 1)"
      }, 
      "inputs": [[348, 0, 0], [349, 0, 0]]
    }, 
    {
      "op": "null", 
      "name": "stu_res_3_block1_conv_proj_conv2d_requant_scale", 
      "inputs": []
    }, 
    {
      "op": "RequantizePredict", 
      "name": "requant_stu_res_3_block1_conv_proj_conv2d", 
      "attrs": {
        "axis": "1", 
        "no_bias": "true"
      }, 
      "inputs": [[350, 0, 0], [351, 0, 0]]
    }, 
    {
      "op": "null", 
      "name": "stu_res_3_block1_conv_proj_batchnorm_gamma", 
      "attrs": {
        "fix_gamma": "False", 
        "momentum": "0.9"
      }, 
      "inputs": []
    }, 
    {
      "op": "null", 
      "name": "stu_res_3_block1_conv_proj_batchnorm_beta", 
      "attrs": {
        "fix_gamma": "False", 
        "momentum": "0.9"
      }, 
      "inputs": []
    }, 
    {
      "op": "null", 
      "name": "stu_res_3_block1_conv_proj_batchnorm_moving_mean", 
      "attrs": {
        "__init__": "[\"zero\", {}]", 
        "fix_gamma": "False", 
        "momentum": "0.9"
      }, 
      "inputs": []
    }, 
    {
      "op": "null", 
      "name": "stu_res_3_block1_conv_proj_batchnorm_moving_var", 
      "attrs": {
        "__init__": "[\"one\", {}]", 
        "fix_gamma": "False", 
        "momentum": "0.9"
      }, 
      "inputs": []
    }, 
    {
      "op": "BatchNorm", 
      "name": "stu_res_3_block1_conv_proj_batchnorm", 
      "attrs": {
        "fix_gamma": "False", 
        "momentum": "0.9"
      }, 
      "inputs": [[352, 0, 0], [353, 0, 0], [354, 0, 0], [355, 0, 1], [356, 0, 1]]
    }, 
    {
      "op": "null", 
      "name": "stu_res_3_block1_conv_proj_conv2d_cheap_data_scale", 
      "inputs": []
    }, 
    {
      "op": "QuantizePredict", 
      "name": "quant_stu_res_3_block1_conv_proj_conv2d_cheap", 
      "attrs": {"compute_scale": "off"}, 
      "inputs": [[352, 0, 0], [358, 0, 0]]
    }, 
    {
      "op": "null", 
      "name": "stu_res_3_block1_conv_proj_conv2d_cheap_weight", 
      "attrs": {
        "__shape__": "(52, 1, 3, 3)", 
        "kernel": "(3, 3)", 
        "no_bias": "True", 
        "num_filter": "52", 
        "num_group": "52", 
        "pad": "(1, 1)", 
        "stride": "(1, 1)"
      }, 
      "inputs": []
    }, 
    {
      "op": "ConvolutionLowbit", 
      "name": "stu_res_3_block1_conv_proj_conv2d_cheap", 
      "attrs": {
        "kernel": "(3, 3)", 
        "layout": "NCHW", 
        "cudnn_off":"True", 
        "no_bias": "true", 
        "num_filter": "52", 
        "num_group": "52", 
        "pad": "(1, 1)", 
        "stride": "(1, 1)"
      }, 
      "inputs": [[359, 0, 0], [360, 0, 0]]
    }, 
    {
      "op": "null", 
      "name": "stu_res_3_block1_conv_proj_conv2d_cheap_requant_scale", 
      "inputs": []
    }, 
    {
      "op": "RequantizePredict", 
      "name": "requant_stu_res_3_block1_conv_proj_conv2d_cheap", 
      "attrs": {
        "axis": "1", 
        "no_bias": "true"
      }, 
      "inputs": [[361, 0, 0], [362, 0, 0]]
    }, 
    {
      "op": "null", 
      "name": "stu_res_3_block1_conv_proj_batchnorm_cheap_gamma", 
      "attrs": {
        "fix_gamma": "False", 
        "momentum": "0.9"
      }, 
      "inputs": []
    }, 
    {
      "op": "null", 
      "name": "stu_res_3_block1_conv_proj_batchnorm_cheap_beta", 
      "attrs": {
        "fix_gamma": "False", 
        "momentum": "0.9"
      }, 
      "inputs": []
    }, 
    {
      "op": "null", 
      "name": "stu_res_3_block1_conv_proj_batchnorm_cheap_moving_mean", 
      "attrs": {
        "__init__": "[\"zero\", {}]", 
        "fix_gamma": "False", 
        "momentum": "0.9"
      }, 
      "inputs": []
    }, 
    {
      "op": "null", 
      "name": "stu_res_3_block1_conv_proj_batchnorm_cheap_moving_var", 
      "attrs": {
        "__init__": "[\"one\", {}]", 
        "fix_gamma": "False", 
        "momentum": "0.9"
      }, 
      "inputs": []
    }, 
    {
      "op": "BatchNorm", 
      "name": "stu_res_3_block1_conv_proj_batchnorm_cheap", 
      "attrs": {
        "fix_gamma": "False", 
        "momentum": "0.9"
      }, 
      "inputs": [[363, 0, 0], [364, 0, 0], [365, 0, 0], [366, 0, 1], [367, 0, 1]]
    }, 
    {
      "op": "Concat", 
      "name": "concat4", 
      "attrs": {
        "dim": "1", 
        "num_args": "2"
      }, 
      "inputs": [[357, 0, 0], [368, 0, 0]]
    }, 
    {
      "op": "elemwise_add", 
      "name": "_plus3", 
      "inputs": [[369, 0, 0], [300, 0, 0]]
    }, 
    {
      "op": "null", 
      "name": "stu_res_3_block2_conv_sep_conv2d_data_scale", 
      "inputs": []
    }, 
    {
      "op": "QuantizePredict", 
      "name": "quant_stu_res_3_block2_conv_sep_conv2d", 
      "attrs": {"compute_scale": "off"}, 
      "inputs": [[370, 0, 0], [371, 0, 0]]
    }, 
    {
      "op": "null", 
      "name": "stu_res_3_block2_conv_sep_conv2d_weight", 
      "attrs": {
        "__shape__": "(208, 104, 1, 1)", 
        "kernel": "(1, 1)", 
        "no_bias": "True", 
        "num_filter": "208", 
        "num_group": "1", 
        "pad": "(0, 0)", 
        "stride": "(1, 1)"
      }, 
      "inputs": []
    }, 
    {
      "op": "ConvolutionLowbit", 
      "name": "stu_res_3_block2_conv_sep_conv2d", 
      "attrs": {
        "kernel": "(1, 1)", 
        "layout": "NCHW", 
        "cudnn_off":"True", 
        "no_bias": "true", 
        "num_filter": "208", 
        "num_group": "1", 
        "pad": "(0, 0)", 
        "stride": "(1, 1)"
      }, 
      "inputs": [[372, 0, 0], [373, 0, 0]]
    }, 
    {
      "op": "null", 
      "name": "stu_res_3_block2_conv_sep_conv2d_requant_scale", 
      "inputs": []
    }, 
    {
      "op": "RequantizePredict", 
      "name": "requant_stu_res_3_block2_conv_sep_conv2d", 
      "attrs": {
        "axis": "1", 
        "no_bias": "true"
      }, 
      "inputs": [[374, 0, 0], [375, 0, 0]]
    }, 
    {
      "op": "null", 
      "name": "stu_res_3_block2_conv_sep_batchnorm_gamma", 
      "attrs": {
        "fix_gamma": "False", 
        "momentum": "0.9"
      }, 
      "inputs": []
    }, 
    {
      "op": "null", 
      "name": "stu_res_3_block2_conv_sep_batchnorm_beta", 
      "attrs": {
        "fix_gamma": "False", 
        "momentum": "0.9"
      }, 
      "inputs": []
    }, 
    {
      "op": "null", 
      "name": "stu_res_3_block2_conv_sep_batchnorm_moving_mean", 
      "attrs": {
        "__init__": "[\"zero\", {}]", 
        "fix_gamma": "False", 
        "momentum": "0.9"
      }, 
      "inputs": []
    }, 
    {
      "op": "null", 
      "name": "stu_res_3_block2_conv_sep_batchnorm_moving_var", 
      "attrs": {
        "__init__": "[\"one\", {}]", 
        "fix_gamma": "False", 
        "momentum": "0.9"
      }, 
      "inputs": []
    }, 
    {
      "op": "BatchNorm", 
      "name": "stu_res_3_block2_conv_sep_batchnorm", 
      "attrs": {
        "fix_gamma": "False", 
        "momentum": "0.9"
      }, 
      "inputs": [[376, 0, 0], [377, 0, 0], [378, 0, 0], [379, 0, 1], [380, 0, 1]]
    }, 
    {
      "op": "null", 
      "name": "stu_res_3_block2_conv_sep_Frelu_conv_data_scale", 
      "inputs": []
    }, 
    {
      "op": "QuantizePredict", 
      "name": "quant_stu_res_3_block2_conv_sep_Frelu_conv", 
      "attrs": {"compute_scale": "off"}, 
      "inputs": [[381, 0, 0], [382, 0, 0]]
    }, 
    {
      "op": "null", 
      "name": "stu_res_3_block2_conv_sep_Frelu_conv_weight", 
      "attrs": {
        "__shape__": "(208, 1, 3, 3)", 
        "kernel": "(3, 3)", 
        "no_bias": "True", 
        "num_filter": "208", 
        "num_group": "208", 
        "pad": "(1, 1)", 
        "stride": "(1, 1)"
      }, 
      "inputs": []
    }, 
    {
      "op": "ConvolutionLowbit", 
      "name": "stu_res_3_block2_conv_sep_Frelu_conv", 
      "attrs": {
        "kernel": "(3, 3)", 
        "layout": "NCHW", 
        "cudnn_off":"True", 
        "no_bias": "true", 
        "num_filter": "208", 
        "num_group": "208", 
        "pad": "(1, 1)", 
        "stride": "(1, 1)"
      }, 
      "inputs": [[383, 0, 0], [384, 0, 0]]
    }, 
    {
      "op": "null", 
      "name": "stu_res_3_block2_conv_sep_Frelu_conv_requant_scale", 
      "inputs": []
    }, 
    {
      "op": "RequantizePredict", 
      "name": "requant_stu_res_3_block2_conv_sep_Frelu_conv", 
      "attrs": {
        "axis": "1", 
        "no_bias": "true"
      }, 
      "inputs": [[385, 0, 0], [386, 0, 0]]
    }, 
    {
      "op": "null", 
      "name": "stu_res_3_block2_conv_sep_Frelu_batchnorm_gamma", 
      "attrs": {
        "fix_gamma": "False", 
        "momentum": "0.9"
      }, 
      "inputs": []
    }, 
    {
      "op": "null", 
      "name": "stu_res_3_block2_conv_sep_Frelu_batchnorm_beta", 
      "attrs": {
        "fix_gamma": "False", 
        "momentum": "0.9"
      }, 
      "inputs": []
    }, 
    {
      "op": "null", 
      "name": "stu_res_3_block2_conv_sep_Frelu_batchnorm_moving_mean", 
      "attrs": {
        "__init__": "[\"zero\", {}]", 
        "fix_gamma": "False", 
        "momentum": "0.9"
      }, 
      "inputs": []
    }, 
    {
      "op": "null", 
      "name": "stu_res_3_block2_conv_sep_Frelu_batchnorm_moving_var", 
      "attrs": {
        "__init__": "[\"one\", {}]", 
        "fix_gamma": "False", 
        "momentum": "0.9"
      }, 
      "inputs": []
    }, 
    {
      "op": "BatchNorm", 
      "name": "stu_res_3_block2_conv_sep_Frelu_batchnorm", 
      "attrs": {
        "fix_gamma": "False", 
        "momentum": "0.9"
      }, 
      "inputs": [[387, 0, 0], [388, 0, 0], [389, 0, 0], [390, 0, 1], [391, 0, 1]]
    }, 
    {
      "op": "broadcast_maximum", 
      "name": "stu_res_3_block2_conv_sep_Frelu_max", 
      "inputs": [[381, 0, 0], [392, 0, 0]]
    }, 
    {
      "op": "null", 
      "name": "stu_res_3_block2_conv_dw_conv2d_data_scale", 
      "inputs": []
    }, 
    {
      "op": "QuantizePredict", 
      "name": "quant_stu_res_3_block2_conv_dw_conv2d", 
      "attrs": {"compute_scale": "off"}, 
      "inputs": [[393, 0, 0], [394, 0, 0]]
    }, 
    {
      "op": "null", 
      "name": "stu_res_3_block2_conv_dw_conv2d_weight", 
      "attrs": {
        "__shape__": "(208, 1, 3, 3)", 
        "kernel": "(3, 3)", 
        "no_bias": "True", 
        "num_filter": "208", 
        "num_group": "208", 
        "pad": "(1, 1)", 
        "stride": "(1, 1)"
      }, 
      "inputs": []
    }, 
    {
      "op": "ConvolutionLowbit", 
      "name": "stu_res_3_block2_conv_dw_conv2d", 
      "attrs": {
        "kernel": "(3, 3)", 
        "layout": "NCHW", 
        "cudnn_off":"True", 
        "no_bias": "true", 
        "num_filter": "208", 
        "num_group": "208", 
        "pad": "(1, 1)", 
        "stride": "(1, 1)"
      }, 
      "inputs": [[395, 0, 0], [396, 0, 0]]
    }, 
    {
      "op": "null", 
      "name": "stu_res_3_block2_conv_dw_conv2d_requant_scale", 
      "inputs": []
    }, 
    {
      "op": "RequantizePredict", 
      "name": "requant_stu_res_3_block2_conv_dw_conv2d", 
      "attrs": {
        "axis": "1", 
        "no_bias": "true"
      }, 
      "inputs": [[397, 0, 0], [398, 0, 0]]
    }, 
    {
      "op": "null", 
      "name": "stu_res_3_block2_conv_dw_batchnorm_gamma", 
      "attrs": {
        "fix_gamma": "False", 
        "momentum": "0.9"
      }, 
      "inputs": []
    }, 
    {
      "op": "null", 
      "name": "stu_res_3_block2_conv_dw_batchnorm_beta", 
      "attrs": {
        "fix_gamma": "False", 
        "momentum": "0.9"
      }, 
      "inputs": []
    }, 
    {
      "op": "null", 
      "name": "stu_res_3_block2_conv_dw_batchnorm_moving_mean", 
      "attrs": {
        "__init__": "[\"zero\", {}]", 
        "fix_gamma": "False", 
        "momentum": "0.9"
      }, 
      "inputs": []
    }, 
    {
      "op": "null", 
      "name": "stu_res_3_block2_conv_dw_batchnorm_moving_var", 
      "attrs": {
        "__init__": "[\"one\", {}]", 
        "fix_gamma": "False", 
        "momentum": "0.9"
      }, 
      "inputs": []
    }, 
    {
      "op": "BatchNorm", 
      "name": "stu_res_3_block2_conv_dw_batchnorm", 
      "attrs": {
        "fix_gamma": "False", 
        "momentum": "0.9"
      }, 
      "inputs": [[399, 0, 0], [400, 0, 0], [401, 0, 0], [402, 0, 1], [403, 0, 1]]
    }, 
    {
      "op": "null", 
      "name": "stu_res_3_block2_conv_dw_Frelu_conv_data_scale", 
      "inputs": []
    }, 
    {
      "op": "QuantizePredict", 
      "name": "quant_stu_res_3_block2_conv_dw_Frelu_conv", 
      "attrs": {"compute_scale": "off"}, 
      "inputs": [[404, 0, 0], [405, 0, 0]]
    }, 
    {
      "op": "null", 
      "name": "stu_res_3_block2_conv_dw_Frelu_conv_weight", 
      "attrs": {
        "__shape__": "(208, 1, 3, 3)", 
        "kernel": "(3, 3)", 
        "no_bias": "True", 
        "num_filter": "208", 
        "num_group": "208", 
        "pad": "(1, 1)", 
        "stride": "(1, 1)"
      }, 
      "inputs": []
    }, 
    {
      "op": "ConvolutionLowbit", 
      "name": "stu_res_3_block2_conv_dw_Frelu_conv", 
      "attrs": {
        "kernel": "(3, 3)", 
        "layout": "NCHW", 
        "cudnn_off":"True", 
        "no_bias": "true", 
        "num_filter": "208", 
        "num_group": "208", 
        "pad": "(1, 1)", 
        "stride": "(1, 1)"
      }, 
      "inputs": [[406, 0, 0], [407, 0, 0]]
    }, 
    {
      "op": "null", 
      "name": "stu_res_3_block2_conv_dw_Frelu_conv_requant_scale", 
      "inputs": []
    }, 
    {
      "op": "RequantizePredict", 
      "name": "requant_stu_res_3_block2_conv_dw_Frelu_conv", 
      "attrs": {
        "axis": "1", 
        "no_bias": "true"
      }, 
      "inputs": [[408, 0, 0], [409, 0, 0]]
    }, 
    {
      "op": "null", 
      "name": "stu_res_3_block2_conv_dw_Frelu_batchnorm_gamma", 
      "attrs": {
        "fix_gamma": "False", 
        "momentum": "0.9"
      }, 
      "inputs": []
    }, 
    {
      "op": "null", 
      "name": "stu_res_3_block2_conv_dw_Frelu_batchnorm_beta", 
      "attrs": {
        "fix_gamma": "False", 
        "momentum": "0.9"
      }, 
      "inputs": []
    }, 
    {
      "op": "null", 
      "name": "stu_res_3_block2_conv_dw_Frelu_batchnorm_moving_mean", 
      "attrs": {
        "__init__": "[\"zero\", {}]", 
        "fix_gamma": "False", 
        "momentum": "0.9"
      }, 
      "inputs": []
    }, 
    {
      "op": "null", 
      "name": "stu_res_3_block2_conv_dw_Frelu_batchnorm_moving_var", 
      "attrs": {
        "__init__": "[\"one\", {}]", 
        "fix_gamma": "False", 
        "momentum": "0.9"
      }, 
      "inputs": []
    }, 
    {
      "op": "BatchNorm", 
      "name": "stu_res_3_block2_conv_dw_Frelu_batchnorm", 
      "attrs": {
        "fix_gamma": "False", 
        "momentum": "0.9"
      }, 
      "inputs": [[410, 0, 0], [411, 0, 0], [412, 0, 0], [413, 0, 1], [414, 0, 1]]
    }, 
    {
      "op": "broadcast_maximum", 
      "name": "stu_res_3_block2_conv_dw_Frelu_max", 
      "inputs": [[404, 0, 0], [415, 0, 0]]
    }, 
    {
      "op": "null", 
      "name": "stu_res_3_block2_conv_proj_conv2d_data_scale", 
      "inputs": []
    }, 
    {
      "op": "QuantizePredict", 
      "name": "quant_stu_res_3_block2_conv_proj_conv2d", 
      "attrs": {"compute_scale": "off"}, 
      "inputs": [[416, 0, 0], [417, 0, 0]]
    }, 
    {
      "op": "null", 
      "name": "stu_res_3_block2_conv_proj_conv2d_weight", 
      "attrs": {
        "__shape__": "(52, 208, 1, 1)", 
        "kernel": "(1, 1)", 
        "no_bias": "True", 
        "num_filter": "52", 
        "num_group": "1", 
        "pad": "(0, 0)", 
        "stride": "(1, 1)"
      }, 
      "inputs": []
    }, 
    {
      "op": "ConvolutionLowbit", 
      "name": "stu_res_3_block2_conv_proj_conv2d", 
      "attrs": {
        "kernel": "(1, 1)", 
        "layout": "NCHW", 
        "cudnn_off":"True", 
        "no_bias": "true", 
        "num_filter": "52", 
        "num_group": "1", 
        "pad": "(0, 0)", 
        "stride": "(1, 1)"
      }, 
      "inputs": [[418, 0, 0], [419, 0, 0]]
    }, 
    {
      "op": "null", 
      "name": "stu_res_3_block2_conv_proj_conv2d_requant_scale", 
      "inputs": []
    }, 
    {
      "op": "RequantizePredict", 
      "name": "requant_stu_res_3_block2_conv_proj_conv2d", 
      "attrs": {
        "axis": "1", 
        "no_bias": "true"
      }, 
      "inputs": [[420, 0, 0], [421, 0, 0]]
    }, 
    {
      "op": "null", 
      "name": "stu_res_3_block2_conv_proj_batchnorm_gamma", 
      "attrs": {
        "fix_gamma": "False", 
        "momentum": "0.9"
      }, 
      "inputs": []
    }, 
    {
      "op": "null", 
      "name": "stu_res_3_block2_conv_proj_batchnorm_beta", 
      "attrs": {
        "fix_gamma": "False", 
        "momentum": "0.9"
      }, 
      "inputs": []
    }, 
    {
      "op": "null", 
      "name": "stu_res_3_block2_conv_proj_batchnorm_moving_mean", 
      "attrs": {
        "__init__": "[\"zero\", {}]", 
        "fix_gamma": "False", 
        "momentum": "0.9"
      }, 
      "inputs": []
    }, 
    {
      "op": "null", 
      "name": "stu_res_3_block2_conv_proj_batchnorm_moving_var", 
      "attrs": {
        "__init__": "[\"one\", {}]", 
        "fix_gamma": "False", 
        "momentum": "0.9"
      }, 
      "inputs": []
    }, 
    {
      "op": "BatchNorm", 
      "name": "stu_res_3_block2_conv_proj_batchnorm", 
      "attrs": {
        "fix_gamma": "False", 
        "momentum": "0.9"
      }, 
      "inputs": [[422, 0, 0], [423, 0, 0], [424, 0, 0], [425, 0, 1], [426, 0, 1]]
    }, 
    {
      "op": "null", 
      "name": "stu_res_3_block2_conv_proj_conv2d_cheap_data_scale", 
      "inputs": []
    }, 
    {
      "op": "QuantizePredict", 
      "name": "quant_stu_res_3_block2_conv_proj_conv2d_cheap", 
      "attrs": {"compute_scale": "off"}, 
      "inputs": [[422, 0, 0], [428, 0, 0]]
    }, 
    {
      "op": "null", 
      "name": "stu_res_3_block2_conv_proj_conv2d_cheap_weight", 
      "attrs": {
        "__shape__": "(52, 1, 3, 3)", 
        "kernel": "(3, 3)", 
        "no_bias": "True", 
        "num_filter": "52", 
        "num_group": "52", 
        "pad": "(1, 1)", 
        "stride": "(1, 1)"
      }, 
      "inputs": []
    }, 
    {
      "op": "ConvolutionLowbit", 
      "name": "stu_res_3_block2_conv_proj_conv2d_cheap", 
      "attrs": {
        "kernel": "(3, 3)", 
        "layout": "NCHW", 
        "cudnn_off":"True", 
        "no_bias": "true", 
        "num_filter": "52", 
        "num_group": "52", 
        "pad": "(1, 1)", 
        "stride": "(1, 1)"
      }, 
      "inputs": [[429, 0, 0], [430, 0, 0]]
    }, 
    {
      "op": "null", 
      "name": "stu_res_3_block2_conv_proj_conv2d_cheap_requant_scale", 
      "inputs": []
    }, 
    {
      "op": "RequantizePredict", 
      "name": "requant_stu_res_3_block2_conv_proj_conv2d_cheap", 
      "attrs": {
        "axis": "1", 
        "no_bias": "true"
      }, 
      "inputs": [[431, 0, 0], [432, 0, 0]]
    }, 
    {
      "op": "null", 
      "name": "stu_res_3_block2_conv_proj_batchnorm_cheap_gamma", 
      "attrs": {
        "fix_gamma": "False", 
        "momentum": "0.9"
      }, 
      "inputs": []
    }, 
    {
      "op": "null", 
      "name": "stu_res_3_block2_conv_proj_batchnorm_cheap_beta", 
      "attrs": {
        "fix_gamma": "False", 
        "momentum": "0.9"
      }, 
      "inputs": []
    }, 
    {
      "op": "null", 
      "name": "stu_res_3_block2_conv_proj_batchnorm_cheap_moving_mean", 
      "attrs": {
        "__init__": "[\"zero\", {}]", 
        "fix_gamma": "False", 
        "momentum": "0.9"
      }, 
      "inputs": []
    }, 
    {
      "op": "null", 
      "name": "stu_res_3_block2_conv_proj_batchnorm_cheap_moving_var", 
      "attrs": {
        "__init__": "[\"one\", {}]", 
        "fix_gamma": "False", 
        "momentum": "0.9"
      }, 
      "inputs": []
    }, 
    {
      "op": "BatchNorm", 
      "name": "stu_res_3_block2_conv_proj_batchnorm_cheap", 
      "attrs": {
        "fix_gamma": "False", 
        "momentum": "0.9"
      }, 
      "inputs": [[433, 0, 0], [434, 0, 0], [435, 0, 0], [436, 0, 1], [437, 0, 1]]
    }, 
    {
      "op": "Concat", 
      "name": "concat5", 
      "attrs": {
        "dim": "1", 
        "num_args": "2"
      }, 
      "inputs": [[427, 0, 0], [438, 0, 0]]
    }, 
    {
      "op": "elemwise_add", 
      "name": "_plus4", 
      "inputs": [[439, 0, 0], [370, 0, 0]]
    }, 
    {
      "op": "null", 
      "name": "stu_res_3_block3_conv_sep_conv2d_data_scale", 
      "inputs": []
    }, 
    {
      "op": "QuantizePredict", 
      "name": "quant_stu_res_3_block3_conv_sep_conv2d", 
      "attrs": {"compute_scale": "off"}, 
      "inputs": [[440, 0, 0], [441, 0, 0]]
    }, 
    {
      "op": "null", 
      "name": "stu_res_3_block3_conv_sep_conv2d_weight", 
      "attrs": {
        "__shape__": "(208, 104, 1, 1)", 
        "kernel": "(1, 1)", 
        "no_bias": "True", 
        "num_filter": "208", 
        "num_group": "1", 
        "pad": "(0, 0)", 
        "stride": "(1, 1)"
      }, 
      "inputs": []
    }, 
    {
      "op": "ConvolutionLowbit", 
      "name": "stu_res_3_block3_conv_sep_conv2d", 
      "attrs": {
        "kernel": "(1, 1)", 
        "layout": "NCHW", 
        "cudnn_off":"True", 
        "no_bias": "true", 
        "num_filter": "208", 
        "num_group": "1", 
        "pad": "(0, 0)", 
        "stride": "(1, 1)"
      }, 
      "inputs": [[442, 0, 0], [443, 0, 0]]
    }, 
    {
      "op": "null", 
      "name": "stu_res_3_block3_conv_sep_conv2d_requant_scale", 
      "inputs": []
    }, 
    {
      "op": "RequantizePredict", 
      "name": "requant_stu_res_3_block3_conv_sep_conv2d", 
      "attrs": {
        "axis": "1", 
        "no_bias": "true"
      }, 
      "inputs": [[444, 0, 0], [445, 0, 0]]
    }, 
    {
      "op": "null", 
      "name": "stu_res_3_block3_conv_sep_batchnorm_gamma", 
      "attrs": {
        "fix_gamma": "False", 
        "momentum": "0.9"
      }, 
      "inputs": []
    }, 
    {
      "op": "null", 
      "name": "stu_res_3_block3_conv_sep_batchnorm_beta", 
      "attrs": {
        "fix_gamma": "False", 
        "momentum": "0.9"
      }, 
      "inputs": []
    }, 
    {
      "op": "null", 
      "name": "stu_res_3_block3_conv_sep_batchnorm_moving_mean", 
      "attrs": {
        "__init__": "[\"zero\", {}]", 
        "fix_gamma": "False", 
        "momentum": "0.9"
      }, 
      "inputs": []
    }, 
    {
      "op": "null", 
      "name": "stu_res_3_block3_conv_sep_batchnorm_moving_var", 
      "attrs": {
        "__init__": "[\"one\", {}]", 
        "fix_gamma": "False", 
        "momentum": "0.9"
      }, 
      "inputs": []
    }, 
    {
      "op": "BatchNorm", 
      "name": "stu_res_3_block3_conv_sep_batchnorm", 
      "attrs": {
        "fix_gamma": "False", 
        "momentum": "0.9"
      }, 
      "inputs": [[446, 0, 0], [447, 0, 0], [448, 0, 0], [449, 0, 1], [450, 0, 1]]
    }, 
    {
      "op": "null", 
      "name": "stu_res_3_block3_conv_sep_Frelu_conv_data_scale", 
      "inputs": []
    }, 
    {
      "op": "QuantizePredict", 
      "name": "quant_stu_res_3_block3_conv_sep_Frelu_conv", 
      "attrs": {"compute_scale": "off"}, 
      "inputs": [[451, 0, 0], [452, 0, 0]]
    }, 
    {
      "op": "null", 
      "name": "stu_res_3_block3_conv_sep_Frelu_conv_weight", 
      "attrs": {
        "__shape__": "(208, 1, 3, 3)", 
        "kernel": "(3, 3)", 
        "no_bias": "True", 
        "num_filter": "208", 
        "num_group": "208", 
        "pad": "(1, 1)", 
        "stride": "(1, 1)"
      }, 
      "inputs": []
    }, 
    {
      "op": "ConvolutionLowbit", 
      "name": "stu_res_3_block3_conv_sep_Frelu_conv", 
      "attrs": {
        "kernel": "(3, 3)", 
        "layout": "NCHW", 
        "cudnn_off":"True", 
        "no_bias": "true", 
        "num_filter": "208", 
        "num_group": "208", 
        "pad": "(1, 1)", 
        "stride": "(1, 1)"
      }, 
      "inputs": [[453, 0, 0], [454, 0, 0]]
    }, 
    {
      "op": "null", 
      "name": "stu_res_3_block3_conv_sep_Frelu_conv_requant_scale", 
      "inputs": []
    }, 
    {
      "op": "RequantizePredict", 
      "name": "requant_stu_res_3_block3_conv_sep_Frelu_conv", 
      "attrs": {
        "axis": "1", 
        "no_bias": "true"
      }, 
      "inputs": [[455, 0, 0], [456, 0, 0]]
    }, 
    {
      "op": "null", 
      "name": "stu_res_3_block3_conv_sep_Frelu_batchnorm_gamma", 
      "attrs": {
        "fix_gamma": "False", 
        "momentum": "0.9"
      }, 
      "inputs": []
    }, 
    {
      "op": "null", 
      "name": "stu_res_3_block3_conv_sep_Frelu_batchnorm_beta", 
      "attrs": {
        "fix_gamma": "False", 
        "momentum": "0.9"
      }, 
      "inputs": []
    }, 
    {
      "op": "null", 
      "name": "stu_res_3_block3_conv_sep_Frelu_batchnorm_moving_mean", 
      "attrs": {
        "__init__": "[\"zero\", {}]", 
        "fix_gamma": "False", 
        "momentum": "0.9"
      }, 
      "inputs": []
    }, 
    {
      "op": "null", 
      "name": "stu_res_3_block3_conv_sep_Frelu_batchnorm_moving_var", 
      "attrs": {
        "__init__": "[\"one\", {}]", 
        "fix_gamma": "False", 
        "momentum": "0.9"
      }, 
      "inputs": []
    }, 
    {
      "op": "BatchNorm", 
      "name": "stu_res_3_block3_conv_sep_Frelu_batchnorm", 
      "attrs": {
        "fix_gamma": "False", 
        "momentum": "0.9"
      }, 
      "inputs": [[457, 0, 0], [458, 0, 0], [459, 0, 0], [460, 0, 1], [461, 0, 1]]
    }, 
    {
      "op": "broadcast_maximum", 
      "name": "stu_res_3_block3_conv_sep_Frelu_max", 
      "inputs": [[451, 0, 0], [462, 0, 0]]
    }, 
    {
      "op": "null", 
      "name": "stu_res_3_block3_conv_dw_conv2d_data_scale", 
      "inputs": []
    }, 
    {
      "op": "QuantizePredict", 
      "name": "quant_stu_res_3_block3_conv_dw_conv2d", 
      "attrs": {"compute_scale": "off"}, 
      "inputs": [[463, 0, 0], [464, 0, 0]]
    }, 
    {
      "op": "null", 
      "name": "stu_res_3_block3_conv_dw_conv2d_weight", 
      "attrs": {
        "__shape__": "(208, 1, 3, 3)", 
        "kernel": "(3, 3)", 
        "no_bias": "True", 
        "num_filter": "208", 
        "num_group": "208", 
        "pad": "(1, 1)", 
        "stride": "(1, 1)"
      }, 
      "inputs": []
    }, 
    {
      "op": "ConvolutionLowbit", 
      "name": "stu_res_3_block3_conv_dw_conv2d", 
      "attrs": {
        "kernel": "(3, 3)", 
        "layout": "NCHW", 
        "cudnn_off":"True", 
        "no_bias": "true", 
        "num_filter": "208", 
        "num_group": "208", 
        "pad": "(1, 1)", 
        "stride": "(1, 1)"
      }, 
      "inputs": [[465, 0, 0], [466, 0, 0]]
    }, 
    {
      "op": "null", 
      "name": "stu_res_3_block3_conv_dw_conv2d_requant_scale", 
      "inputs": []
    }, 
    {
      "op": "RequantizePredict", 
      "name": "requant_stu_res_3_block3_conv_dw_conv2d", 
      "attrs": {
        "axis": "1", 
        "no_bias": "true"
      }, 
      "inputs": [[467, 0, 0], [468, 0, 0]]
    }, 
    {
      "op": "null", 
      "name": "stu_res_3_block3_conv_dw_batchnorm_gamma", 
      "attrs": {
        "fix_gamma": "False", 
        "momentum": "0.9"
      }, 
      "inputs": []
    }, 
    {
      "op": "null", 
      "name": "stu_res_3_block3_conv_dw_batchnorm_beta", 
      "attrs": {
        "fix_gamma": "False", 
        "momentum": "0.9"
      }, 
      "inputs": []
    }, 
    {
      "op": "null", 
      "name": "stu_res_3_block3_conv_dw_batchnorm_moving_mean", 
      "attrs": {
        "__init__": "[\"zero\", {}]", 
        "fix_gamma": "False", 
        "momentum": "0.9"
      }, 
      "inputs": []
    }, 
    {
      "op": "null", 
      "name": "stu_res_3_block3_conv_dw_batchnorm_moving_var", 
      "attrs": {
        "__init__": "[\"one\", {}]", 
        "fix_gamma": "False", 
        "momentum": "0.9"
      }, 
      "inputs": []
    }, 
    {
      "op": "BatchNorm", 
      "name": "stu_res_3_block3_conv_dw_batchnorm", 
      "attrs": {
        "fix_gamma": "False", 
        "momentum": "0.9"
      }, 
      "inputs": [[469, 0, 0], [470, 0, 0], [471, 0, 0], [472, 0, 1], [473, 0, 1]]
    }, 
    {
      "op": "null", 
      "name": "stu_res_3_block3_conv_dw_Frelu_conv_data_scale", 
      "inputs": []
    }, 
    {
      "op": "QuantizePredict", 
      "name": "quant_stu_res_3_block3_conv_dw_Frelu_conv", 
      "attrs": {"compute_scale": "off"}, 
      "inputs": [[474, 0, 0], [475, 0, 0]]
    }, 
    {
      "op": "null", 
      "name": "stu_res_3_block3_conv_dw_Frelu_conv_weight", 
      "attrs": {
        "__shape__": "(208, 1, 3, 3)", 
        "kernel": "(3, 3)", 
        "no_bias": "True", 
        "num_filter": "208", 
        "num_group": "208", 
        "pad": "(1, 1)", 
        "stride": "(1, 1)"
      }, 
      "inputs": []
    }, 
    {
      "op": "ConvolutionLowbit", 
      "name": "stu_res_3_block3_conv_dw_Frelu_conv", 
      "attrs": {
        "kernel": "(3, 3)", 
        "layout": "NCHW", 
        "cudnn_off":"True", 
        "no_bias": "true", 
        "num_filter": "208", 
        "num_group": "208", 
        "pad": "(1, 1)", 
        "stride": "(1, 1)"
      }, 
      "inputs": [[476, 0, 0], [477, 0, 0]]
    }, 
    {
      "op": "null", 
      "name": "stu_res_3_block3_conv_dw_Frelu_conv_requant_scale", 
      "inputs": []
    }, 
    {
      "op": "RequantizePredict", 
      "name": "requant_stu_res_3_block3_conv_dw_Frelu_conv", 
      "attrs": {
        "axis": "1", 
        "no_bias": "true"
      }, 
      "inputs": [[478, 0, 0], [479, 0, 0]]
    }, 
    {
      "op": "null", 
      "name": "stu_res_3_block3_conv_dw_Frelu_batchnorm_gamma", 
      "attrs": {
        "fix_gamma": "False", 
        "momentum": "0.9"
      }, 
      "inputs": []
    }, 
    {
      "op": "null", 
      "name": "stu_res_3_block3_conv_dw_Frelu_batchnorm_beta", 
      "attrs": {
        "fix_gamma": "False", 
        "momentum": "0.9"
      }, 
      "inputs": []
    }, 
    {
      "op": "null", 
      "name": "stu_res_3_block3_conv_dw_Frelu_batchnorm_moving_mean", 
      "attrs": {
        "__init__": "[\"zero\", {}]", 
        "fix_gamma": "False", 
        "momentum": "0.9"
      }, 
      "inputs": []
    }, 
    {
      "op": "null", 
      "name": "stu_res_3_block3_conv_dw_Frelu_batchnorm_moving_var", 
      "attrs": {
        "__init__": "[\"one\", {}]", 
        "fix_gamma": "False", 
        "momentum": "0.9"
      }, 
      "inputs": []
    }, 
    {
      "op": "BatchNorm", 
      "name": "stu_res_3_block3_conv_dw_Frelu_batchnorm", 
      "attrs": {
        "fix_gamma": "False", 
        "momentum": "0.9"
      }, 
      "inputs": [[480, 0, 0], [481, 0, 0], [482, 0, 0], [483, 0, 1], [484, 0, 1]]
    }, 
    {
      "op": "broadcast_maximum", 
      "name": "stu_res_3_block3_conv_dw_Frelu_max", 
      "inputs": [[474, 0, 0], [485, 0, 0]]
    }, 
    {
      "op": "null", 
      "name": "stu_res_3_block3_conv_proj_conv2d_data_scale", 
      "inputs": []
    }, 
    {
      "op": "QuantizePredict", 
      "name": "quant_stu_res_3_block3_conv_proj_conv2d", 
      "attrs": {"compute_scale": "off"}, 
      "inputs": [[486, 0, 0], [487, 0, 0]]
    }, 
    {
      "op": "null", 
      "name": "stu_res_3_block3_conv_proj_conv2d_weight", 
      "attrs": {
        "__shape__": "(52, 208, 1, 1)", 
        "kernel": "(1, 1)", 
        "no_bias": "True", 
        "num_filter": "52", 
        "num_group": "1", 
        "pad": "(0, 0)", 
        "stride": "(1, 1)"
      }, 
      "inputs": []
    }, 
    {
      "op": "ConvolutionLowbit", 
      "name": "stu_res_3_block3_conv_proj_conv2d", 
      "attrs": {
        "kernel": "(1, 1)", 
        "layout": "NCHW", 
        "cudnn_off":"True", 
        "no_bias": "true", 
        "num_filter": "52", 
        "num_group": "1", 
        "pad": "(0, 0)", 
        "stride": "(1, 1)"
      }, 
      "inputs": [[488, 0, 0], [489, 0, 0]]
    }, 
    {
      "op": "null", 
      "name": "stu_res_3_block3_conv_proj_conv2d_requant_scale", 
      "inputs": []
    }, 
    {
      "op": "RequantizePredict", 
      "name": "requant_stu_res_3_block3_conv_proj_conv2d", 
      "attrs": {
        "axis": "1", 
        "no_bias": "true"
      }, 
      "inputs": [[490, 0, 0], [491, 0, 0]]
    }, 
    {
      "op": "null", 
      "name": "stu_res_3_block3_conv_proj_batchnorm_gamma", 
      "attrs": {
        "fix_gamma": "False", 
        "momentum": "0.9"
      }, 
      "inputs": []
    }, 
    {
      "op": "null", 
      "name": "stu_res_3_block3_conv_proj_batchnorm_beta", 
      "attrs": {
        "fix_gamma": "False", 
        "momentum": "0.9"
      }, 
      "inputs": []
    }, 
    {
      "op": "null", 
      "name": "stu_res_3_block3_conv_proj_batchnorm_moving_mean", 
      "attrs": {
        "__init__": "[\"zero\", {}]", 
        "fix_gamma": "False", 
        "momentum": "0.9"
      }, 
      "inputs": []
    }, 
    {
      "op": "null", 
      "name": "stu_res_3_block3_conv_proj_batchnorm_moving_var", 
      "attrs": {
        "__init__": "[\"one\", {}]", 
        "fix_gamma": "False", 
        "momentum": "0.9"
      }, 
      "inputs": []
    }, 
    {
      "op": "BatchNorm", 
      "name": "stu_res_3_block3_conv_proj_batchnorm", 
      "attrs": {
        "fix_gamma": "False", 
        "momentum": "0.9"
      }, 
      "inputs": [[492, 0, 0], [493, 0, 0], [494, 0, 0], [495, 0, 1], [496, 0, 1]]
    }, 
    {
      "op": "null", 
      "name": "stu_res_3_block3_conv_proj_conv2d_cheap_data_scale", 
      "inputs": []
    }, 
    {
      "op": "QuantizePredict", 
      "name": "quant_stu_res_3_block3_conv_proj_conv2d_cheap", 
      "attrs": {"compute_scale": "off"}, 
      "inputs": [[492, 0, 0], [498, 0, 0]]
    }, 
    {
      "op": "null", 
      "name": "stu_res_3_block3_conv_proj_conv2d_cheap_weight", 
      "attrs": {
        "__shape__": "(52, 1, 3, 3)", 
        "kernel": "(3, 3)", 
        "no_bias": "True", 
        "num_filter": "52", 
        "num_group": "52", 
        "pad": "(1, 1)", 
        "stride": "(1, 1)"
      }, 
      "inputs": []
    }, 
    {
      "op": "ConvolutionLowbit", 
      "name": "stu_res_3_block3_conv_proj_conv2d_cheap", 
      "attrs": {
        "kernel": "(3, 3)", 
        "layout": "NCHW", 
        "cudnn_off":"True", 
        "no_bias": "true", 
        "num_filter": "52", 
        "num_group": "52", 
        "pad": "(1, 1)", 
        "stride": "(1, 1)"
      }, 
      "inputs": [[499, 0, 0], [500, 0, 0]]
    }, 
    {
      "op": "null", 
      "name": "stu_res_3_block3_conv_proj_conv2d_cheap_requant_scale", 
      "inputs": []
    }, 
    {
      "op": "RequantizePredict", 
      "name": "requant_stu_res_3_block3_conv_proj_conv2d_cheap", 
      "attrs": {
        "axis": "1", 
        "no_bias": "true"
      }, 
      "inputs": [[501, 0, 0], [502, 0, 0]]
    }, 
    {
      "op": "null", 
      "name": "stu_res_3_block3_conv_proj_batchnorm_cheap_gamma", 
      "attrs": {
        "fix_gamma": "False", 
        "momentum": "0.9"
      }, 
      "inputs": []
    }, 
    {
      "op": "null", 
      "name": "stu_res_3_block3_conv_proj_batchnorm_cheap_beta", 
      "attrs": {
        "fix_gamma": "False", 
        "momentum": "0.9"
      }, 
      "inputs": []
    }, 
    {
      "op": "null", 
      "name": "stu_res_3_block3_conv_proj_batchnorm_cheap_moving_mean", 
      "attrs": {
        "__init__": "[\"zero\", {}]", 
        "fix_gamma": "False", 
        "momentum": "0.9"
      }, 
      "inputs": []
    }, 
    {
      "op": "null", 
      "name": "stu_res_3_block3_conv_proj_batchnorm_cheap_moving_var", 
      "attrs": {
        "__init__": "[\"one\", {}]", 
        "fix_gamma": "False", 
        "momentum": "0.9"
      }, 
      "inputs": []
    }, 
    {
      "op": "BatchNorm", 
      "name": "stu_res_3_block3_conv_proj_batchnorm_cheap", 
      "attrs": {
        "fix_gamma": "False", 
        "momentum": "0.9"
      }, 
      "inputs": [[503, 0, 0], [504, 0, 0], [505, 0, 0], [506, 0, 1], [507, 0, 1]]
    }, 
    {
      "op": "Concat", 
      "name": "concat6", 
      "attrs": {
        "dim": "1", 
        "num_args": "2"
      }, 
      "inputs": [[497, 0, 0], [508, 0, 0]]
    }, 
    {
      "op": "elemwise_add", 
      "name": "_plus5", 
      "inputs": [[509, 0, 0], [440, 0, 0]]
    }, 
    {
      "op": "null", 
      "name": "stu_res_3_block4_conv_sep_conv2d_data_scale", 
      "inputs": []
    }, 
    {
      "op": "QuantizePredict", 
      "name": "quant_stu_res_3_block4_conv_sep_conv2d", 
      "attrs": {"compute_scale": "off"}, 
      "inputs": [[510, 0, 0], [511, 0, 0]]
    }, 
    {
      "op": "null", 
      "name": "stu_res_3_block4_conv_sep_conv2d_weight", 
      "attrs": {
        "__shape__": "(208, 104, 1, 1)", 
        "kernel": "(1, 1)", 
        "no_bias": "True", 
        "num_filter": "208", 
        "num_group": "1", 
        "pad": "(0, 0)", 
        "stride": "(1, 1)"
      }, 
      "inputs": []
    }, 
    {
      "op": "ConvolutionLowbit", 
      "name": "stu_res_3_block4_conv_sep_conv2d", 
      "attrs": {
        "kernel": "(1, 1)", 
        "layout": "NCHW", 
        "cudnn_off":"True", 
        "no_bias": "true", 
        "num_filter": "208", 
        "num_group": "1", 
        "pad": "(0, 0)", 
        "stride": "(1, 1)"
      }, 
      "inputs": [[512, 0, 0], [513, 0, 0]]
    }, 
    {
      "op": "null", 
      "name": "stu_res_3_block4_conv_sep_conv2d_requant_scale", 
      "inputs": []
    }, 
    {
      "op": "RequantizePredict", 
      "name": "requant_stu_res_3_block4_conv_sep_conv2d", 
      "attrs": {
        "axis": "1", 
        "no_bias": "true"
      }, 
      "inputs": [[514, 0, 0], [515, 0, 0]]
    }, 
    {
      "op": "null", 
      "name": "stu_res_3_block4_conv_sep_batchnorm_gamma", 
      "attrs": {
        "fix_gamma": "False", 
        "momentum": "0.9"
      }, 
      "inputs": []
    }, 
    {
      "op": "null", 
      "name": "stu_res_3_block4_conv_sep_batchnorm_beta", 
      "attrs": {
        "fix_gamma": "False", 
        "momentum": "0.9"
      }, 
      "inputs": []
    }, 
    {
      "op": "null", 
      "name": "stu_res_3_block4_conv_sep_batchnorm_moving_mean", 
      "attrs": {
        "__init__": "[\"zero\", {}]", 
        "fix_gamma": "False", 
        "momentum": "0.9"
      }, 
      "inputs": []
    }, 
    {
      "op": "null", 
      "name": "stu_res_3_block4_conv_sep_batchnorm_moving_var", 
      "attrs": {
        "__init__": "[\"one\", {}]", 
        "fix_gamma": "False", 
        "momentum": "0.9"
      }, 
      "inputs": []
    }, 
    {
      "op": "BatchNorm", 
      "name": "stu_res_3_block4_conv_sep_batchnorm", 
      "attrs": {
        "fix_gamma": "False", 
        "momentum": "0.9"
      }, 
      "inputs": [[516, 0, 0], [517, 0, 0], [518, 0, 0], [519, 0, 1], [520, 0, 1]]
    }, 
    {
      "op": "null", 
      "name": "stu_res_3_block4_conv_sep_Frelu_conv_data_scale", 
      "inputs": []
    }, 
    {
      "op": "QuantizePredict", 
      "name": "quant_stu_res_3_block4_conv_sep_Frelu_conv", 
      "attrs": {"compute_scale": "off"}, 
      "inputs": [[521, 0, 0], [522, 0, 0]]
    }, 
    {
      "op": "null", 
      "name": "stu_res_3_block4_conv_sep_Frelu_conv_weight", 
      "attrs": {
        "__shape__": "(208, 1, 3, 3)", 
        "kernel": "(3, 3)", 
        "no_bias": "True", 
        "num_filter": "208", 
        "num_group": "208", 
        "pad": "(1, 1)", 
        "stride": "(1, 1)"
      }, 
      "inputs": []
    }, 
    {
      "op": "ConvolutionLowbit", 
      "name": "stu_res_3_block4_conv_sep_Frelu_conv", 
      "attrs": {
        "kernel": "(3, 3)", 
        "layout": "NCHW", 
        "cudnn_off":"True", 
        "no_bias": "true", 
        "num_filter": "208", 
        "num_group": "208", 
        "pad": "(1, 1)", 
        "stride": "(1, 1)"
      }, 
      "inputs": [[523, 0, 0], [524, 0, 0]]
    }, 
    {
      "op": "null", 
      "name": "stu_res_3_block4_conv_sep_Frelu_conv_requant_scale", 
      "inputs": []
    }, 
    {
      "op": "RequantizePredict", 
      "name": "requant_stu_res_3_block4_conv_sep_Frelu_conv", 
      "attrs": {
        "axis": "1", 
        "no_bias": "true"
      }, 
      "inputs": [[525, 0, 0], [526, 0, 0]]
    }, 
    {
      "op": "null", 
      "name": "stu_res_3_block4_conv_sep_Frelu_batchnorm_gamma", 
      "attrs": {
        "fix_gamma": "False", 
        "momentum": "0.9"
      }, 
      "inputs": []
    }, 
    {
      "op": "null", 
      "name": "stu_res_3_block4_conv_sep_Frelu_batchnorm_beta", 
      "attrs": {
        "fix_gamma": "False", 
        "momentum": "0.9"
      }, 
      "inputs": []
    }, 
    {
      "op": "null", 
      "name": "stu_res_3_block4_conv_sep_Frelu_batchnorm_moving_mean", 
      "attrs": {
        "__init__": "[\"zero\", {}]", 
        "fix_gamma": "False", 
        "momentum": "0.9"
      }, 
      "inputs": []
    }, 
    {
      "op": "null", 
      "name": "stu_res_3_block4_conv_sep_Frelu_batchnorm_moving_var", 
      "attrs": {
        "__init__": "[\"one\", {}]", 
        "fix_gamma": "False", 
        "momentum": "0.9"
      }, 
      "inputs": []
    }, 
    {
      "op": "BatchNorm", 
      "name": "stu_res_3_block4_conv_sep_Frelu_batchnorm", 
      "attrs": {
        "fix_gamma": "False", 
        "momentum": "0.9"
      }, 
      "inputs": [[527, 0, 0], [528, 0, 0], [529, 0, 0], [530, 0, 1], [531, 0, 1]]
    }, 
    {
      "op": "broadcast_maximum", 
      "name": "stu_res_3_block4_conv_sep_Frelu_max", 
      "inputs": [[521, 0, 0], [532, 0, 0]]
    }, 
    {
      "op": "null", 
      "name": "stu_res_3_block4_conv_dw_conv2d_data_scale", 
      "inputs": []
    }, 
    {
      "op": "QuantizePredict", 
      "name": "quant_stu_res_3_block4_conv_dw_conv2d", 
      "attrs": {"compute_scale": "off"}, 
      "inputs": [[533, 0, 0], [534, 0, 0]]
    }, 
    {
      "op": "null", 
      "name": "stu_res_3_block4_conv_dw_conv2d_weight", 
      "attrs": {
        "__shape__": "(208, 1, 3, 3)", 
        "kernel": "(3, 3)", 
        "no_bias": "True", 
        "num_filter": "208", 
        "num_group": "208", 
        "pad": "(1, 1)", 
        "stride": "(1, 1)"
      }, 
      "inputs": []
    }, 
    {
      "op": "ConvolutionLowbit", 
      "name": "stu_res_3_block4_conv_dw_conv2d", 
      "attrs": {
        "kernel": "(3, 3)", 
        "layout": "NCHW", 
        "cudnn_off":"True", 
        "no_bias": "true", 
        "num_filter": "208", 
        "num_group": "208", 
        "pad": "(1, 1)", 
        "stride": "(1, 1)"
      }, 
      "inputs": [[535, 0, 0], [536, 0, 0]]
    }, 
    {
      "op": "null", 
      "name": "stu_res_3_block4_conv_dw_conv2d_requant_scale", 
      "inputs": []
    }, 
    {
      "op": "RequantizePredict", 
      "name": "requant_stu_res_3_block4_conv_dw_conv2d", 
      "attrs": {
        "axis": "1", 
        "no_bias": "true"
      }, 
      "inputs": [[537, 0, 0], [538, 0, 0]]
    }, 
    {
      "op": "null", 
      "name": "stu_res_3_block4_conv_dw_batchnorm_gamma", 
      "attrs": {
        "fix_gamma": "False", 
        "momentum": "0.9"
      }, 
      "inputs": []
    }, 
    {
      "op": "null", 
      "name": "stu_res_3_block4_conv_dw_batchnorm_beta", 
      "attrs": {
        "fix_gamma": "False", 
        "momentum": "0.9"
      }, 
      "inputs": []
    }, 
    {
      "op": "null", 
      "name": "stu_res_3_block4_conv_dw_batchnorm_moving_mean", 
      "attrs": {
        "__init__": "[\"zero\", {}]", 
        "fix_gamma": "False", 
        "momentum": "0.9"
      }, 
      "inputs": []
    }, 
    {
      "op": "null", 
      "name": "stu_res_3_block4_conv_dw_batchnorm_moving_var", 
      "attrs": {
        "__init__": "[\"one\", {}]", 
        "fix_gamma": "False", 
        "momentum": "0.9"
      }, 
      "inputs": []
    }, 
    {
      "op": "BatchNorm", 
      "name": "stu_res_3_block4_conv_dw_batchnorm", 
      "attrs": {
        "fix_gamma": "False", 
        "momentum": "0.9"
      }, 
      "inputs": [[539, 0, 0], [540, 0, 0], [541, 0, 0], [542, 0, 1], [543, 0, 1]]
    }, 
    {
      "op": "null", 
      "name": "stu_res_3_block4_conv_dw_Frelu_conv_data_scale", 
      "inputs": []
    }, 
    {
      "op": "QuantizePredict", 
      "name": "quant_stu_res_3_block4_conv_dw_Frelu_conv", 
      "attrs": {"compute_scale": "off"}, 
      "inputs": [[544, 0, 0], [545, 0, 0]]
    }, 
    {
      "op": "null", 
      "name": "stu_res_3_block4_conv_dw_Frelu_conv_weight", 
      "attrs": {
        "__shape__": "(208, 1, 3, 3)", 
        "kernel": "(3, 3)", 
        "no_bias": "True", 
        "num_filter": "208", 
        "num_group": "208", 
        "pad": "(1, 1)", 
        "stride": "(1, 1)"
      }, 
      "inputs": []
    }, 
    {
      "op": "ConvolutionLowbit", 
      "name": "stu_res_3_block4_conv_dw_Frelu_conv", 
      "attrs": {
        "kernel": "(3, 3)", 
        "layout": "NCHW", 
        "cudnn_off":"True", 
        "no_bias": "true", 
        "num_filter": "208", 
        "num_group": "208", 
        "pad": "(1, 1)", 
        "stride": "(1, 1)"
      }, 
      "inputs": [[546, 0, 0], [547, 0, 0]]
    }, 
    {
      "op": "null", 
      "name": "stu_res_3_block4_conv_dw_Frelu_conv_requant_scale", 
      "inputs": []
    }, 
    {
      "op": "RequantizePredict", 
      "name": "requant_stu_res_3_block4_conv_dw_Frelu_conv", 
      "attrs": {
        "axis": "1", 
        "no_bias": "true"
      }, 
      "inputs": [[548, 0, 0], [549, 0, 0]]
    }, 
    {
      "op": "null", 
      "name": "stu_res_3_block4_conv_dw_Frelu_batchnorm_gamma", 
      "attrs": {
        "fix_gamma": "False", 
        "momentum": "0.9"
      }, 
      "inputs": []
    }, 
    {
      "op": "null", 
      "name": "stu_res_3_block4_conv_dw_Frelu_batchnorm_beta", 
      "attrs": {
        "fix_gamma": "False", 
        "momentum": "0.9"
      }, 
      "inputs": []
    }, 
    {
      "op": "null", 
      "name": "stu_res_3_block4_conv_dw_Frelu_batchnorm_moving_mean", 
      "attrs": {
        "__init__": "[\"zero\", {}]", 
        "fix_gamma": "False", 
        "momentum": "0.9"
      }, 
      "inputs": []
    }, 
    {
      "op": "null", 
      "name": "stu_res_3_block4_conv_dw_Frelu_batchnorm_moving_var", 
      "attrs": {
        "__init__": "[\"one\", {}]", 
        "fix_gamma": "False", 
        "momentum": "0.9"
      }, 
      "inputs": []
    }, 
    {
      "op": "BatchNorm", 
      "name": "stu_res_3_block4_conv_dw_Frelu_batchnorm", 
      "attrs": {
        "fix_gamma": "False", 
        "momentum": "0.9"
      }, 
      "inputs": [[550, 0, 0], [551, 0, 0], [552, 0, 0], [553, 0, 1], [554, 0, 1]]
    }, 
    {
      "op": "broadcast_maximum", 
      "name": "stu_res_3_block4_conv_dw_Frelu_max", 
      "inputs": [[544, 0, 0], [555, 0, 0]]
    }, 
    {
      "op": "null", 
      "name": "stu_res_3_block4_conv_proj_conv2d_data_scale", 
      "inputs": []
    }, 
    {
      "op": "QuantizePredict", 
      "name": "quant_stu_res_3_block4_conv_proj_conv2d", 
      "attrs": {"compute_scale": "off"}, 
      "inputs": [[556, 0, 0], [557, 0, 0]]
    }, 
    {
      "op": "null", 
      "name": "stu_res_3_block4_conv_proj_conv2d_weight", 
      "attrs": {
        "__shape__": "(52, 208, 1, 1)", 
        "kernel": "(1, 1)", 
        "no_bias": "True", 
        "num_filter": "52", 
        "num_group": "1", 
        "pad": "(0, 0)", 
        "stride": "(1, 1)"
      }, 
      "inputs": []
    }, 
    {
      "op": "ConvolutionLowbit", 
      "name": "stu_res_3_block4_conv_proj_conv2d", 
      "attrs": {
        "kernel": "(1, 1)", 
        "layout": "NCHW", 
        "cudnn_off":"True", 
        "no_bias": "true", 
        "num_filter": "52", 
        "num_group": "1", 
        "pad": "(0, 0)", 
        "stride": "(1, 1)"
      }, 
      "inputs": [[558, 0, 0], [559, 0, 0]]
    }, 
    {
      "op": "null", 
      "name": "stu_res_3_block4_conv_proj_conv2d_requant_scale", 
      "inputs": []
    }, 
    {
      "op": "RequantizePredict", 
      "name": "requant_stu_res_3_block4_conv_proj_conv2d", 
      "attrs": {
        "axis": "1", 
        "no_bias": "true"
      }, 
      "inputs": [[560, 0, 0], [561, 0, 0]]
    }, 
    {
      "op": "null", 
      "name": "stu_res_3_block4_conv_proj_batchnorm_gamma", 
      "attrs": {
        "fix_gamma": "False", 
        "momentum": "0.9"
      }, 
      "inputs": []
    }, 
    {
      "op": "null", 
      "name": "stu_res_3_block4_conv_proj_batchnorm_beta", 
      "attrs": {
        "fix_gamma": "False", 
        "momentum": "0.9"
      }, 
      "inputs": []
    }, 
    {
      "op": "null", 
      "name": "stu_res_3_block4_conv_proj_batchnorm_moving_mean", 
      "attrs": {
        "__init__": "[\"zero\", {}]", 
        "fix_gamma": "False", 
        "momentum": "0.9"
      }, 
      "inputs": []
    }, 
    {
      "op": "null", 
      "name": "stu_res_3_block4_conv_proj_batchnorm_moving_var", 
      "attrs": {
        "__init__": "[\"one\", {}]", 
        "fix_gamma": "False", 
        "momentum": "0.9"
      }, 
      "inputs": []
    }, 
    {
      "op": "BatchNorm", 
      "name": "stu_res_3_block4_conv_proj_batchnorm", 
      "attrs": {
        "fix_gamma": "False", 
        "momentum": "0.9"
      }, 
      "inputs": [[562, 0, 0], [563, 0, 0], [564, 0, 0], [565, 0, 1], [566, 0, 1]]
    }, 
    {
      "op": "null", 
      "name": "stu_res_3_block4_conv_proj_conv2d_cheap_data_scale", 
      "inputs": []
    }, 
    {
      "op": "QuantizePredict", 
      "name": "quant_stu_res_3_block4_conv_proj_conv2d_cheap", 
      "attrs": {"compute_scale": "off"}, 
      "inputs": [[562, 0, 0], [568, 0, 0]]
    }, 
    {
      "op": "null", 
      "name": "stu_res_3_block4_conv_proj_conv2d_cheap_weight", 
      "attrs": {
        "__shape__": "(52, 1, 3, 3)", 
        "kernel": "(3, 3)", 
        "no_bias": "True", 
        "num_filter": "52", 
        "num_group": "52", 
        "pad": "(1, 1)", 
        "stride": "(1, 1)"
      }, 
      "inputs": []
    }, 
    {
      "op": "ConvolutionLowbit", 
      "name": "stu_res_3_block4_conv_proj_conv2d_cheap", 
      "attrs": {
        "kernel": "(3, 3)", 
        "layout": "NCHW", 
        "cudnn_off":"True", 
        "no_bias": "true", 
        "num_filter": "52", 
        "num_group": "52", 
        "pad": "(1, 1)", 
        "stride": "(1, 1)"
      }, 
      "inputs": [[569, 0, 0], [570, 0, 0]]
    }, 
    {
      "op": "null", 
      "name": "stu_res_3_block4_conv_proj_conv2d_cheap_requant_scale", 
      "inputs": []
    }, 
    {
      "op": "RequantizePredict", 
      "name": "requant_stu_res_3_block4_conv_proj_conv2d_cheap", 
      "attrs": {
        "axis": "1", 
        "no_bias": "true"
      }, 
      "inputs": [[571, 0, 0], [572, 0, 0]]
    }, 
    {
      "op": "null", 
      "name": "stu_res_3_block4_conv_proj_batchnorm_cheap_gamma", 
      "attrs": {
        "fix_gamma": "False", 
        "momentum": "0.9"
      }, 
      "inputs": []
    }, 
    {
      "op": "null", 
      "name": "stu_res_3_block4_conv_proj_batchnorm_cheap_beta", 
      "attrs": {
        "fix_gamma": "False", 
        "momentum": "0.9"
      }, 
      "inputs": []
    }, 
    {
      "op": "null", 
      "name": "stu_res_3_block4_conv_proj_batchnorm_cheap_moving_mean", 
      "attrs": {
        "__init__": "[\"zero\", {}]", 
        "fix_gamma": "False", 
        "momentum": "0.9"
      }, 
      "inputs": []
    }, 
    {
      "op": "null", 
      "name": "stu_res_3_block4_conv_proj_batchnorm_cheap_moving_var", 
      "attrs": {
        "__init__": "[\"one\", {}]", 
        "fix_gamma": "False", 
        "momentum": "0.9"
      }, 
      "inputs": []
    }, 
    {
      "op": "BatchNorm", 
      "name": "stu_res_3_block4_conv_proj_batchnorm_cheap", 
      "attrs": {
        "fix_gamma": "False", 
        "momentum": "0.9"
      }, 
      "inputs": [[573, 0, 0], [574, 0, 0], [575, 0, 0], [576, 0, 1], [577, 0, 1]]
    }, 
    {
      "op": "Concat", 
      "name": "concat7", 
      "attrs": {
        "dim": "1", 
        "num_args": "2"
      }, 
      "inputs": [[567, 0, 0], [578, 0, 0]]
    }, 
    {
      "op": "elemwise_add", 
      "name": "_plus6", 
      "inputs": [[579, 0, 0], [510, 0, 0]]
    }, 
    {
      "op": "null", 
      "name": "stu_res_3_block5_conv_sep_conv2d_data_scale", 
      "inputs": []
    }, 
    {
      "op": "QuantizePredict", 
      "name": "quant_stu_res_3_block5_conv_sep_conv2d", 
      "attrs": {"compute_scale": "off"}, 
      "inputs": [[580, 0, 0], [581, 0, 0]]
    }, 
    {
      "op": "null", 
      "name": "stu_res_3_block5_conv_sep_conv2d_weight", 
      "attrs": {
        "__shape__": "(208, 104, 1, 1)", 
        "kernel": "(1, 1)", 
        "no_bias": "True", 
        "num_filter": "208", 
        "num_group": "1", 
        "pad": "(0, 0)", 
        "stride": "(1, 1)"
      }, 
      "inputs": []
    }, 
    {
      "op": "ConvolutionLowbit", 
      "name": "stu_res_3_block5_conv_sep_conv2d", 
      "attrs": {
        "kernel": "(1, 1)", 
        "layout": "NCHW", 
        "cudnn_off":"True", 
        "no_bias": "true", 
        "num_filter": "208", 
        "num_group": "1", 
        "pad": "(0, 0)", 
        "stride": "(1, 1)"
      }, 
      "inputs": [[582, 0, 0], [583, 0, 0]]
    }, 
    {
      "op": "null", 
      "name": "stu_res_3_block5_conv_sep_conv2d_requant_scale", 
      "inputs": []
    }, 
    {
      "op": "RequantizePredict", 
      "name": "requant_stu_res_3_block5_conv_sep_conv2d", 
      "attrs": {
        "axis": "1", 
        "no_bias": "true"
      }, 
      "inputs": [[584, 0, 0], [585, 0, 0]]
    }, 
    {
      "op": "null", 
      "name": "stu_res_3_block5_conv_sep_batchnorm_gamma", 
      "attrs": {
        "fix_gamma": "False", 
        "momentum": "0.9"
      }, 
      "inputs": []
    }, 
    {
      "op": "null", 
      "name": "stu_res_3_block5_conv_sep_batchnorm_beta", 
      "attrs": {
        "fix_gamma": "False", 
        "momentum": "0.9"
      }, 
      "inputs": []
    }, 
    {
      "op": "null", 
      "name": "stu_res_3_block5_conv_sep_batchnorm_moving_mean", 
      "attrs": {
        "__init__": "[\"zero\", {}]", 
        "fix_gamma": "False", 
        "momentum": "0.9"
      }, 
      "inputs": []
    }, 
    {
      "op": "null", 
      "name": "stu_res_3_block5_conv_sep_batchnorm_moving_var", 
      "attrs": {
        "__init__": "[\"one\", {}]", 
        "fix_gamma": "False", 
        "momentum": "0.9"
      }, 
      "inputs": []
    }, 
    {
      "op": "BatchNorm", 
      "name": "stu_res_3_block5_conv_sep_batchnorm", 
      "attrs": {
        "fix_gamma": "False", 
        "momentum": "0.9"
      }, 
      "inputs": [[586, 0, 0], [587, 0, 0], [588, 0, 0], [589, 0, 1], [590, 0, 1]]
    }, 
    {
      "op": "null", 
      "name": "stu_res_3_block5_conv_sep_Frelu_conv_data_scale", 
      "inputs": []
    }, 
    {
      "op": "QuantizePredict", 
      "name": "quant_stu_res_3_block5_conv_sep_Frelu_conv", 
      "attrs": {"compute_scale": "off"}, 
      "inputs": [[591, 0, 0], [592, 0, 0]]
    }, 
    {
      "op": "null", 
      "name": "stu_res_3_block5_conv_sep_Frelu_conv_weight", 
      "attrs": {
        "__shape__": "(208, 1, 3, 3)", 
        "kernel": "(3, 3)", 
        "no_bias": "True", 
        "num_filter": "208", 
        "num_group": "208", 
        "pad": "(1, 1)", 
        "stride": "(1, 1)"
      }, 
      "inputs": []
    }, 
    {
      "op": "ConvolutionLowbit", 
      "name": "stu_res_3_block5_conv_sep_Frelu_conv", 
      "attrs": {
        "kernel": "(3, 3)", 
        "layout": "NCHW", 
        "cudnn_off":"True", 
        "no_bias": "true", 
        "num_filter": "208", 
        "num_group": "208", 
        "pad": "(1, 1)", 
        "stride": "(1, 1)"
      }, 
      "inputs": [[593, 0, 0], [594, 0, 0]]
    }, 
    {
      "op": "null", 
      "name": "stu_res_3_block5_conv_sep_Frelu_conv_requant_scale", 
      "inputs": []
    }, 
    {
      "op": "RequantizePredict", 
      "name": "requant_stu_res_3_block5_conv_sep_Frelu_conv", 
      "attrs": {
        "axis": "1", 
        "no_bias": "true"
      }, 
      "inputs": [[595, 0, 0], [596, 0, 0]]
    }, 
    {
      "op": "null", 
      "name": "stu_res_3_block5_conv_sep_Frelu_batchnorm_gamma", 
      "attrs": {
        "fix_gamma": "False", 
        "momentum": "0.9"
      }, 
      "inputs": []
    }, 
    {
      "op": "null", 
      "name": "stu_res_3_block5_conv_sep_Frelu_batchnorm_beta", 
      "attrs": {
        "fix_gamma": "False", 
        "momentum": "0.9"
      }, 
      "inputs": []
    }, 
    {
      "op": "null", 
      "name": "stu_res_3_block5_conv_sep_Frelu_batchnorm_moving_mean", 
      "attrs": {
        "__init__": "[\"zero\", {}]", 
        "fix_gamma": "False", 
        "momentum": "0.9"
      }, 
      "inputs": []
    }, 
    {
      "op": "null", 
      "name": "stu_res_3_block5_conv_sep_Frelu_batchnorm_moving_var", 
      "attrs": {
        "__init__": "[\"one\", {}]", 
        "fix_gamma": "False", 
        "momentum": "0.9"
      }, 
      "inputs": []
    }, 
    {
      "op": "BatchNorm", 
      "name": "stu_res_3_block5_conv_sep_Frelu_batchnorm", 
      "attrs": {
        "fix_gamma": "False", 
        "momentum": "0.9"
      }, 
      "inputs": [[597, 0, 0], [598, 0, 0], [599, 0, 0], [600, 0, 1], [601, 0, 1]]
    }, 
    {
      "op": "broadcast_maximum", 
      "name": "stu_res_3_block5_conv_sep_Frelu_max", 
      "inputs": [[591, 0, 0], [602, 0, 0]]
    }, 
    {
      "op": "null", 
      "name": "stu_res_3_block5_conv_dw_conv2d_data_scale", 
      "inputs": []
    }, 
    {
      "op": "QuantizePredict", 
      "name": "quant_stu_res_3_block5_conv_dw_conv2d", 
      "attrs": {"compute_scale": "off"}, 
      "inputs": [[603, 0, 0], [604, 0, 0]]
    }, 
    {
      "op": "null", 
      "name": "stu_res_3_block5_conv_dw_conv2d_weight", 
      "attrs": {
        "__shape__": "(208, 1, 3, 3)", 
        "kernel": "(3, 3)", 
        "no_bias": "True", 
        "num_filter": "208", 
        "num_group": "208", 
        "pad": "(1, 1)", 
        "stride": "(1, 1)"
      }, 
      "inputs": []
    }, 
    {
      "op": "ConvolutionLowbit", 
      "name": "stu_res_3_block5_conv_dw_conv2d", 
      "attrs": {
        "kernel": "(3, 3)", 
        "layout": "NCHW", 
        "cudnn_off":"True", 
        "no_bias": "true", 
        "num_filter": "208", 
        "num_group": "208", 
        "pad": "(1, 1)", 
        "stride": "(1, 1)"
      }, 
      "inputs": [[605, 0, 0], [606, 0, 0]]
    }, 
    {
      "op": "null", 
      "name": "stu_res_3_block5_conv_dw_conv2d_requant_scale", 
      "inputs": []
    }, 
    {
      "op": "RequantizePredict", 
      "name": "requant_stu_res_3_block5_conv_dw_conv2d", 
      "attrs": {
        "axis": "1", 
        "no_bias": "true"
      }, 
      "inputs": [[607, 0, 0], [608, 0, 0]]
    }, 
    {
      "op": "null", 
      "name": "stu_res_3_block5_conv_dw_batchnorm_gamma", 
      "attrs": {
        "fix_gamma": "False", 
        "momentum": "0.9"
      }, 
      "inputs": []
    }, 
    {
      "op": "null", 
      "name": "stu_res_3_block5_conv_dw_batchnorm_beta", 
      "attrs": {
        "fix_gamma": "False", 
        "momentum": "0.9"
      }, 
      "inputs": []
    }, 
    {
      "op": "null", 
      "name": "stu_res_3_block5_conv_dw_batchnorm_moving_mean", 
      "attrs": {
        "__init__": "[\"zero\", {}]", 
        "fix_gamma": "False", 
        "momentum": "0.9"
      }, 
      "inputs": []
    }, 
    {
      "op": "null", 
      "name": "stu_res_3_block5_conv_dw_batchnorm_moving_var", 
      "attrs": {
        "__init__": "[\"one\", {}]", 
        "fix_gamma": "False", 
        "momentum": "0.9"
      }, 
      "inputs": []
    }, 
    {
      "op": "BatchNorm", 
      "name": "stu_res_3_block5_conv_dw_batchnorm", 
      "attrs": {
        "fix_gamma": "False", 
        "momentum": "0.9"
      }, 
      "inputs": [[609, 0, 0], [610, 0, 0], [611, 0, 0], [612, 0, 1], [613, 0, 1]]
    }, 
    {
      "op": "null", 
      "name": "stu_res_3_block5_conv_dw_Frelu_conv_data_scale", 
      "inputs": []
    }, 
    {
      "op": "QuantizePredict", 
      "name": "quant_stu_res_3_block5_conv_dw_Frelu_conv", 
      "attrs": {"compute_scale": "off"}, 
      "inputs": [[614, 0, 0], [615, 0, 0]]
    }, 
    {
      "op": "null", 
      "name": "stu_res_3_block5_conv_dw_Frelu_conv_weight", 
      "attrs": {
        "__shape__": "(208, 1, 3, 3)", 
        "kernel": "(3, 3)", 
        "no_bias": "True", 
        "num_filter": "208", 
        "num_group": "208", 
        "pad": "(1, 1)", 
        "stride": "(1, 1)"
      }, 
      "inputs": []
    }, 
    {
      "op": "ConvolutionLowbit", 
      "name": "stu_res_3_block5_conv_dw_Frelu_conv", 
      "attrs": {
        "kernel": "(3, 3)", 
        "layout": "NCHW", 
        "cudnn_off":"True", 
        "no_bias": "true", 
        "num_filter": "208", 
        "num_group": "208", 
        "pad": "(1, 1)", 
        "stride": "(1, 1)"
      }, 
      "inputs": [[616, 0, 0], [617, 0, 0]]
    }, 
    {
      "op": "null", 
      "name": "stu_res_3_block5_conv_dw_Frelu_conv_requant_scale", 
      "inputs": []
    }, 
    {
      "op": "RequantizePredict", 
      "name": "requant_stu_res_3_block5_conv_dw_Frelu_conv", 
      "attrs": {
        "axis": "1", 
        "no_bias": "true"
      }, 
      "inputs": [[618, 0, 0], [619, 0, 0]]
    }, 
    {
      "op": "null", 
      "name": "stu_res_3_block5_conv_dw_Frelu_batchnorm_gamma", 
      "attrs": {
        "fix_gamma": "False", 
        "momentum": "0.9"
      }, 
      "inputs": []
    }, 
    {
      "op": "null", 
      "name": "stu_res_3_block5_conv_dw_Frelu_batchnorm_beta", 
      "attrs": {
        "fix_gamma": "False", 
        "momentum": "0.9"
      }, 
      "inputs": []
    }, 
    {
      "op": "null", 
      "name": "stu_res_3_block5_conv_dw_Frelu_batchnorm_moving_mean", 
      "attrs": {
        "__init__": "[\"zero\", {}]", 
        "fix_gamma": "False", 
        "momentum": "0.9"
      }, 
      "inputs": []
    }, 
    {
      "op": "null", 
      "name": "stu_res_3_block5_conv_dw_Frelu_batchnorm_moving_var", 
      "attrs": {
        "__init__": "[\"one\", {}]", 
        "fix_gamma": "False", 
        "momentum": "0.9"
      }, 
      "inputs": []
    }, 
    {
      "op": "BatchNorm", 
      "name": "stu_res_3_block5_conv_dw_Frelu_batchnorm", 
      "attrs": {
        "fix_gamma": "False", 
        "momentum": "0.9"
      }, 
      "inputs": [[620, 0, 0], [621, 0, 0], [622, 0, 0], [623, 0, 1], [624, 0, 1]]
    }, 
    {
      "op": "broadcast_maximum", 
      "name": "stu_res_3_block5_conv_dw_Frelu_max", 
      "inputs": [[614, 0, 0], [625, 0, 0]]
    }, 
    {
      "op": "null", 
      "name": "stu_res_3_block5_conv_proj_conv2d_data_scale", 
      "inputs": []
    }, 
    {
      "op": "QuantizePredict", 
      "name": "quant_stu_res_3_block5_conv_proj_conv2d", 
      "attrs": {"compute_scale": "off"}, 
      "inputs": [[626, 0, 0], [627, 0, 0]]
    }, 
    {
      "op": "null", 
      "name": "stu_res_3_block5_conv_proj_conv2d_weight", 
      "attrs": {
        "__shape__": "(52, 208, 1, 1)", 
        "kernel": "(1, 1)", 
        "no_bias": "True", 
        "num_filter": "52", 
        "num_group": "1", 
        "pad": "(0, 0)", 
        "stride": "(1, 1)"
      }, 
      "inputs": []
    }, 
    {
      "op": "ConvolutionLowbit", 
      "name": "stu_res_3_block5_conv_proj_conv2d", 
      "attrs": {
        "kernel": "(1, 1)", 
        "layout": "NCHW", 
        "cudnn_off":"True", 
        "no_bias": "true", 
        "num_filter": "52", 
        "num_group": "1", 
        "pad": "(0, 0)", 
        "stride": "(1, 1)"
      }, 
      "inputs": [[628, 0, 0], [629, 0, 0]]
    }, 
    {
      "op": "null", 
      "name": "stu_res_3_block5_conv_proj_conv2d_requant_scale", 
      "inputs": []
    }, 
    {
      "op": "RequantizePredict", 
      "name": "requant_stu_res_3_block5_conv_proj_conv2d", 
      "attrs": {
        "axis": "1", 
        "no_bias": "true"
      }, 
      "inputs": [[630, 0, 0], [631, 0, 0]]
    }, 
    {
      "op": "null", 
      "name": "stu_res_3_block5_conv_proj_batchnorm_gamma", 
      "attrs": {
        "fix_gamma": "False", 
        "momentum": "0.9"
      }, 
      "inputs": []
    }, 
    {
      "op": "null", 
      "name": "stu_res_3_block5_conv_proj_batchnorm_beta", 
      "attrs": {
        "fix_gamma": "False", 
        "momentum": "0.9"
      }, 
      "inputs": []
    }, 
    {
      "op": "null", 
      "name": "stu_res_3_block5_conv_proj_batchnorm_moving_mean", 
      "attrs": {
        "__init__": "[\"zero\", {}]", 
        "fix_gamma": "False", 
        "momentum": "0.9"
      }, 
      "inputs": []
    }, 
    {
      "op": "null", 
      "name": "stu_res_3_block5_conv_proj_batchnorm_moving_var", 
      "attrs": {
        "__init__": "[\"one\", {}]", 
        "fix_gamma": "False", 
        "momentum": "0.9"
      }, 
      "inputs": []
    }, 
    {
      "op": "BatchNorm", 
      "name": "stu_res_3_block5_conv_proj_batchnorm", 
      "attrs": {
        "fix_gamma": "False", 
        "momentum": "0.9"
      }, 
      "inputs": [[632, 0, 0], [633, 0, 0], [634, 0, 0], [635, 0, 1], [636, 0, 1]]
    }, 
    {
      "op": "null", 
      "name": "stu_res_3_block5_conv_proj_conv2d_cheap_data_scale", 
      "inputs": []
    }, 
    {
      "op": "QuantizePredict", 
      "name": "quant_stu_res_3_block5_conv_proj_conv2d_cheap", 
      "attrs": {"compute_scale": "off"}, 
      "inputs": [[632, 0, 0], [638, 0, 0]]
    }, 
    {
      "op": "null", 
      "name": "stu_res_3_block5_conv_proj_conv2d_cheap_weight", 
      "attrs": {
        "__shape__": "(52, 1, 3, 3)", 
        "kernel": "(3, 3)", 
        "no_bias": "True", 
        "num_filter": "52", 
        "num_group": "52", 
        "pad": "(1, 1)", 
        "stride": "(1, 1)"
      }, 
      "inputs": []
    }, 
    {
      "op": "ConvolutionLowbit", 
      "name": "stu_res_3_block5_conv_proj_conv2d_cheap", 
      "attrs": {
        "kernel": "(3, 3)", 
        "layout": "NCHW", 
        "cudnn_off":"True", 
        "no_bias": "true", 
        "num_filter": "52", 
        "num_group": "52", 
        "pad": "(1, 1)", 
        "stride": "(1, 1)"
      }, 
      "inputs": [[639, 0, 0], [640, 0, 0]]
    }, 
    {
      "op": "null", 
      "name": "stu_res_3_block5_conv_proj_conv2d_cheap_requant_scale", 
      "inputs": []
    }, 
    {
      "op": "RequantizePredict", 
      "name": "requant_stu_res_3_block5_conv_proj_conv2d_cheap", 
      "attrs": {
        "axis": "1", 
        "no_bias": "true"
      }, 
      "inputs": [[641, 0, 0], [642, 0, 0]]
    }, 
    {
      "op": "null", 
      "name": "stu_res_3_block5_conv_proj_batchnorm_cheap_gamma", 
      "attrs": {
        "fix_gamma": "False", 
        "momentum": "0.9"
      }, 
      "inputs": []
    }, 
    {
      "op": "null", 
      "name": "stu_res_3_block5_conv_proj_batchnorm_cheap_beta", 
      "attrs": {
        "fix_gamma": "False", 
        "momentum": "0.9"
      }, 
      "inputs": []
    }, 
    {
      "op": "null", 
      "name": "stu_res_3_block5_conv_proj_batchnorm_cheap_moving_mean", 
      "attrs": {
        "__init__": "[\"zero\", {}]", 
        "fix_gamma": "False", 
        "momentum": "0.9"
      }, 
      "inputs": []
    }, 
    {
      "op": "null", 
      "name": "stu_res_3_block5_conv_proj_batchnorm_cheap_moving_var", 
      "attrs": {
        "__init__": "[\"one\", {}]", 
        "fix_gamma": "False", 
        "momentum": "0.9"
      }, 
      "inputs": []
    }, 
    {
      "op": "BatchNorm", 
      "name": "stu_res_3_block5_conv_proj_batchnorm_cheap", 
      "attrs": {
        "fix_gamma": "False", 
        "momentum": "0.9"
      }, 
      "inputs": [[643, 0, 0], [644, 0, 0], [645, 0, 0], [646, 0, 1], [647, 0, 1]]
    }, 
    {
      "op": "Concat", 
      "name": "concat8", 
      "attrs": {
        "dim": "1", 
        "num_args": "2"
      }, 
      "inputs": [[637, 0, 0], [648, 0, 0]]
    }, 
    {
      "op": "elemwise_add", 
      "name": "_plus7", 
      "inputs": [[649, 0, 0], [580, 0, 0]]
    }, 
    {
      "op": "null", 
      "name": "stu_res_3_block6_conv_sep_conv2d_data_scale", 
      "inputs": []
    }, 
    {
      "op": "QuantizePredict", 
      "name": "quant_stu_res_3_block6_conv_sep_conv2d", 
      "attrs": {"compute_scale": "off"}, 
      "inputs": [[650, 0, 0], [651, 0, 0]]
    }, 
    {
      "op": "null", 
      "name": "stu_res_3_block6_conv_sep_conv2d_weight", 
      "attrs": {
        "__shape__": "(208, 104, 1, 1)", 
        "kernel": "(1, 1)", 
        "no_bias": "True", 
        "num_filter": "208", 
        "num_group": "1", 
        "pad": "(0, 0)", 
        "stride": "(1, 1)"
      }, 
      "inputs": []
    }, 
    {
      "op": "ConvolutionLowbit", 
      "name": "stu_res_3_block6_conv_sep_conv2d", 
      "attrs": {
        "kernel": "(1, 1)", 
        "layout": "NCHW", 
        "cudnn_off":"True", 
        "no_bias": "true", 
        "num_filter": "208", 
        "num_group": "1", 
        "pad": "(0, 0)", 
        "stride": "(1, 1)"
      }, 
      "inputs": [[652, 0, 0], [653, 0, 0]]
    }, 
    {
      "op": "null", 
      "name": "stu_res_3_block6_conv_sep_conv2d_requant_scale", 
      "inputs": []
    }, 
    {
      "op": "RequantizePredict", 
      "name": "requant_stu_res_3_block6_conv_sep_conv2d", 
      "attrs": {
        "axis": "1", 
        "no_bias": "true"
      }, 
      "inputs": [[654, 0, 0], [655, 0, 0]]
    }, 
    {
      "op": "null", 
      "name": "stu_res_3_block6_conv_sep_batchnorm_gamma", 
      "attrs": {
        "fix_gamma": "False", 
        "momentum": "0.9"
      }, 
      "inputs": []
    }, 
    {
      "op": "null", 
      "name": "stu_res_3_block6_conv_sep_batchnorm_beta", 
      "attrs": {
        "fix_gamma": "False", 
        "momentum": "0.9"
      }, 
      "inputs": []
    }, 
    {
      "op": "null", 
      "name": "stu_res_3_block6_conv_sep_batchnorm_moving_mean", 
      "attrs": {
        "__init__": "[\"zero\", {}]", 
        "fix_gamma": "False", 
        "momentum": "0.9"
      }, 
      "inputs": []
    }, 
    {
      "op": "null", 
      "name": "stu_res_3_block6_conv_sep_batchnorm_moving_var", 
      "attrs": {
        "__init__": "[\"one\", {}]", 
        "fix_gamma": "False", 
        "momentum": "0.9"
      }, 
      "inputs": []
    }, 
    {
      "op": "BatchNorm", 
      "name": "stu_res_3_block6_conv_sep_batchnorm", 
      "attrs": {
        "fix_gamma": "False", 
        "momentum": "0.9"
      }, 
      "inputs": [[656, 0, 0], [657, 0, 0], [658, 0, 0], [659, 0, 1], [660, 0, 1]]
    }, 
    {
      "op": "null", 
      "name": "stu_res_3_block6_conv_sep_Frelu_conv_data_scale", 
      "inputs": []
    }, 
    {
      "op": "QuantizePredict", 
…
    2511, 
    2512, 
    2513, 
    2516, 
    2518, 
    2520, 
    2522, 
    2523, 
    2524, 
    2525, 
    2527, 
    2529, 
    2531, 
    2533, 
    2534, 
    2535, 
    2536, 
    2540, 
    2542, 
    2544, 
    2546, 
    2547, 
    2548, 
    2549, 
    2551, 
    2553, 
    2555, 
    2557, 
    2558, 
    2559, 
    2560, 
    2563, 
    2565, 
    2567, 
    2569, 
    2570, 
    2571, 
    2572, 
    2574, 
    2576, 
    2578, 
    2580, 
    2581, 
    2582, 
    2583, 
    2586, 
    2588, 
    2590, 
    2592, 
    2593, 
    2594, 
    2595, 
    2597, 
    2599, 
    2601, 
    2603, 
    2604, 
    2605, 
    2606, 
    2610, 
    2612, 
    2614, 
    2616, 
    2617, 
    2618, 
    2619, 
    2621, 
    2623, 
    2625, 
    2627, 
    2628, 
    2629, 
    2630, 
    2633, 
    2635, 
    2637, 
    2639, 
    2640, 
    2641, 
    2642, 
    2644, 
    2646, 
    2648, 
    2650, 
    2651, 
    2652, 
    2653, 
    2656, 
    2658, 
    2660, 
    2662, 
    2663, 
    2664, 
    2665, 
    2667, 
    2669, 
    2671, 
    2673, 
    2674, 
    2675, 
    2676, 
    2680, 
    2682, 
    2684, 
    2686, 
    2687, 
    2688, 
    2689, 
    2691, 
    2693, 
    2695, 
    2697, 
    2698, 
    2699, 
    2700, 
    2703, 
    2705, 
    2707, 
    2709, 
    2710, 
    2711, 
    2712, 
    2714, 
    2716, 
    2718, 
    2720, 
    2721, 
    2722, 
    2723, 
    2726, 
    2728, 
    2730, 
    2732, 
    2733, 
    2734, 
    2735, 
    2737, 
    2739, 
    2741, 
    2743, 
    2744, 
    2745, 
    2746, 
    2750, 
    2752, 
    2754, 
    2756, 
    2757, 
    2758, 
    2759, 
    2761, 
    2763, 
    2765, 
    2767, 
    2768, 
    2769, 
    2770, 
    2773, 
    2775, 
    2777, 
    2779, 
    2780, 
    2781, 
    2782, 
    2784, 
    2786, 
    2788, 
    2790, 
    2791, 
    2792, 
    2793, 
    2796, 
    2798, 
    2800, 
    2802, 
    2803, 
    2804, 
    2805, 
    2807, 
    2809, 
    2811, 
    2813, 
    2814, 
    2815, 
    2816, 
    2820, 
    2822, 
    2824, 
    2826, 
    2827, 
    2828, 
    2829, 
    2831, 
    2833, 
    2835, 
    2837, 
    2838, 
    2839, 
    2840, 
    2843, 
    2845, 
    2847, 
    2849, 
    2850, 
    2851, 
    2852, 
    2854, 
    2856, 
    2858, 
    2860, 
    2861, 
    2862, 
    2863, 
    2866, 
    2868, 
    2870, 
    2872, 
    2873, 
    2874, 
    2875, 
    2877, 
    2879, 
    2881, 
    2883, 
    2884, 
    2885, 
    2886, 
    2890, 
    2892, 
    2894, 
    2896, 
    2897, 
    2898, 
    2899, 
    2901, 
    2903, 
    2905, 
    2907, 
    2908, 
    2909, 
    2910, 
    2913, 
    2915, 
    2917, 
    2919, 
    2920, 
    2921, 
    2922, 
    2924, 
    2926, 
    2928, 
    2930, 
    2931, 
    2932, 
    2933, 
    2936, 
    2938, 
    2940, 
    2942, 
    2943, 
    2944, 
    2945, 
    2947, 
    2949, 
    2951, 
    2953, 
    2954, 
    2955, 
    2956, 
    2960, 
    2962, 
    2964, 
    2966, 
    2967, 
    2968, 
    2969, 
    2971, 
    2973, 
    2975, 
    2977, 
    2978, 
    2979, 
    2980, 
    2983, 
    2985, 
    2987, 
    2989, 
    2990, 
    2991, 
    2992, 
    2994, 
    2996, 
    2998, 
    3000, 
    3001, 
    3002, 
    3003, 
    3006, 
    3008, 
    3010, 
    3012, 
    3013, 
    3014, 
    3015, 
    3017, 
    3019, 
    3021, 
    3023, 
    3024, 
    3025, 
    3026, 
    3030, 
    3032, 
    3034, 
    3036, 
    3037, 
    3038, 
    3039, 
    3041, 
    3043, 
    3045, 
    3047, 
    3048, 
    3049, 
    3050, 
    3053, 
    3055, 
    3057, 
    3059, 
    3060, 
    3061, 
    3062, 
    3064, 
    3066, 
    3068, 
    3070, 
    3071, 
    3072, 
    3073, 
    3076, 
    3078, 
    3080, 
    3082, 
    3083, 
    3084, 
    3085, 
    3087, 
    3089, 
    3091, 
    3093, 
    3094, 
    3095, 
    3096, 
    3100, 
    3102, 
    3104, 
    3106, 
    3107, 
    3108, 
    3109, 
    3111, 
    3113, 
    3115, 
    3117, 
    3118, 
    3119, 
    3120, 
    3123, 
    3125, 
    3127, 
    3129, 
    3130, 
    3131, 
    3132, 
    3134, 
    3136, 
    3138, 
    3140, 
    3141, 
    3142, 
    3143, 
    3146, 
    3148, 
    3150, 
    3152, 
    3153, 
    3154, 
    3155, 
    3157, 
    3159, 
    3161, 
    3163, 
    3164, 
    3165, 
    3166, 
    3170, 
    3172, 
    3174, 
    3176, 
    3177, 
    3178, 
    3179, 
    3181, 
    3183, 
    3185, 
    3187, 
    3188, 
    3189, 
    3190, 
    3193, 
    3195, 
    3197, 
    3199, 
    3200, 
    3201, 
    3202, 
    3204, 
    3206, 
    3208, 
    3210, 
    3211, 
    3212, 
    3213, 
    3216, 
    3218, 
    3220, 
    3222, 
    3223, 
    3224, 
    3225, 
    3227, 
    3229, 
    3231, 
    3233, 
    3234, 
    3235, 
    3236, 
    3240, 
    3242, 
    3244, 
    3246, 
    3247, 
    3248, 
    3249, 
    3251, 
    3253, 
    3255, 
    3257, 
    3258, 
    3259, 
    3260, 
    3263, 
    3265, 
    3267, 
    3269, 
    3270, 
    3271, 
    3272, 
    3274, 
    3276, 
    3278, 
    3280, 
    3281, 
    3282, 
    3283, 
    3286, 
    3288, 
    3290, 
    3292, 
    3293, 
    3294, 
    3295, 
    3297, 
    3299, 
    3301, 
    3303, 
    3304, 
    3305, 
    3306, 
    3309, 
    3311, 
    3313, 
    3315, 
    3316, 
    3317, 
    3318, 
    3320, 
    3322, 
    3324, 
    3326, 
    3327, 
    3328, 
    3329, 
    3332, 
    3334, 
    3336, 
    3338, 
    3339, 
    3340, 
    3341, 
    3343, 
    3345, 
    3347, 
    3349, 
    3350, 
    3351, 
    3352, 
    3355, 
    3357, 
    3359, 
    3361, 
    3362, 
    3363, 
    3364, 
    3366, 
    3368, 
    3370, 
    3372, 
    3373, 
    3374, 
    3375, 
    3379, 
    3381, 
    3383, 
    3385, 
    3386, 
    3387, 
    3388, 
    3390, 
    3392, 
    3394, 
    3396, 
    3397, 
    3398, 
    3399, 
    3402, 
    3404, 
    3406, 
    3408, 
    3409, 
    3410, 
    3411, 
    3413, 
    3415, 
    3417, 
    3419, 
    3420, 
    3421, 
    3422, 
    3425, 
    3427, 
    3429, 
    3431, 
    3432, 
    3433, 
    3434, 
    3436, 
    3438, 
    3440, 
    3442, 
    3443, 
    3444, 
    3445, 
    3449, 
    3451, 
    3453, 
    3455, 
    3456, 
    3457, 
    3458, 
    3460, 
    3462, 
    3464, 
    3466, 
    3467, 
    3468, 
    3469, 
    3472, 
    3474, 
    3476, 
    3478, 
    3479, 
    3480, 
    3481, 
    3483, 
    3485, 
    3487, 
    3489, 
    3490, 
    3491, 
    3492, 
    3495, 
    3497, 
    3499, 
    3501, 
    3502, 
    3503, 
    3504, 
    3506, 
    3508, 
    3510, 
    3512, 
    3513, 
    3514, 
    3515, 
    3519, 
    3521, 
    3523, 
    3525, 
    3526, 
    3527, 
    3528, 
    3530, 
    3532, 
    3534, 
    3536, 
    3537, 
    3538, 
    3539, 
    3542, 
    3544, 
    3546, 
    3548, 
    3549, 
    3550, 
    3551, 
    3553, 
    3555, 
    3557, 
    3559, 
    3560, 
    3561, 
    3562, 
    3565, 
    3567, 
    3569, 
    3571, 
    3572, 
    3573, 
    3574, 
    3576, 
    3578, 
    3580, 
    3582, 
    3583, 
    3584, 
    3585, 
    3589, 
    3591, 
    3593, 
    3595, 
    3596, 
    3597, 
    3598, 
    3600, 
    3602, 
    3604, 
    3606, 
    3607, 
    3608, 
    3609, 
    3612, 
    3614, 
    3616, 
    3618, 
    3619, 
    3620, 
    3621, 
    3623, 
    3625, 
    3627, 
    3629, 
    3630, 
    3631, 
    3632, 
    3635, 
    3637, 
    3639, 
    3641, 
    3642, 
    3643, 
    3644, 
    3646, 
    3648, 
    3650, 
    3652, 
    3653, 
    3654, 
    3655, 
    3659, 
    3661, 
    3663, 
    3665, 
    3666, 
    3667, 
    3668, 
    3670, 
    3672, 
    3674, 
    3676, 
    3677, 
    3678, 
    3679, 
    3682, 
    3684, 
    3686, 
    3688, 
    3689, 
    3690, 
    3691, 
    3693, 
    3695, 
    3697, 
    3699, 
    3700, 
    3701, 
    3702, 
    3705, 
    3707, 
    3709, 
    3711, 
    3712, 
    3713, 
    3714, 
    3716, 
    3718, 
    3720, 
    3722, 
    3723, 
    3724, 
    3725, 
    3729, 
    3731, 
    3733, 
    3735, 
    3736, 
    3737, 
    3738, 
    3740, 
    3742, 
    3744, 
    3746, 
    3747, 
    3748, 
    3749, 
    3752, 
    3754, 
    3756, 
    3758, 
    3759, 
    3760, 
    3761, 
    3763, 
    3765, 
    3767, 
    3769, 
    3770, 
    3771, 
    3772, 
    3775, 
    3777, 
    3779, 
    3781, 
    3782, 
    3783, 
    3784, 
    3786, 
    3788, 
    3790, 
    3792, 
    3793, 
    3794, 
    3795, 
    3799, 
    3801, 
    3803, 
    3805, 
    3806, 
    3807, 
    3808, 
    3810, 
    3812, 
    3814, 
    3816, 
    3817, 
    3818, 
    3819, 
    3822, 
    3823, 
    3824, 
    3825, 
    3831, 
    3832, 
    3834, 
    3835, 
    3836, 
    3837
  ], 
  "node_row_ptr": [
    0, 
    1, 
    2, 
    3, 
    4, 
    5, 
    6, 
    7, 
    8, 
    9, 
    10, 
    11, 
    12, 
    13, 
    14, 
    15, 
    16, 
    17, 
    18, 
    19, 
    20, 
    21, 
    22, 
    23, 
    24, 
    25, 
    26, 
    27, 
    28, 
    29, 
    30, 
    31, 
    32, 
    33, 
    34, 
    35, 
    36, 
    37, 
    38, 
    39, 
    40, 
    41, 
    42, 
    43, 
    44, 
    45, 
    46, 
    47, 
    48, 
    49, 
    50, 
    51, 
    52, 
    53, 
    54, 
    55, 
    56, 
    57, 
    58, 
    59, 
    60, 
    61, 
    62, 
    63, 
    64, 
    65, 
    66, 
    67, 
    68, 
    69, 
    70, 
    71, 
    72, 
    73, 
    74, 
    75, 
    76, 
    77, 
    78, 
    79, 
    80, 
    81, 
    82, 
    83, 
    84, 
    85, 
    86, 
    87, 
    88, 
    89, 
    90, 
    91, 
    92, 
    93, 
    94, 
    95, 
    96, 
    97, 
    98, 
    99, 
    100, 
    101, 
    102, 
    103, 
    104, 
    105, 
    106, 
    107, 
    108, 
    109, 
    110, 
    111, 
    112, 
    113, 
    114, 
    115, 
    116, 
    117, 
    118, 
    119, 
    120, 
    121, 
    122, 
    123, 
    124, 
    125, 
    126, 
    127, 
    128, 
    129, 
    130, 
    131, 
    132, 
    133, 
    134, 
    135, 
    136, 
    137, 
    138, 
    139, 
    140, 
    141, 
    142, 
    143, 
    144, 
    145, 
    146, 
    147, 
    148, 
    149, 
    150, 
    151, 
    152, 
    153, 
    154, 
    155, 
    156, 
    157, 
    158, 
    159, 
    160, 
    161, 
    162, 
    163, 
    164, 
    165, 
    166, 
    167, 
    168, 
    169, 
    170, 
    171, 
    172, 
    173, 
    174, 
    175, 
    176, 
    177, 
    178, 
    179, 
    180, 
    181, 
    182, 
    183, 
    184, 
    185, 
    186, 
    187, 
    188, 
    189, 
    190, 
    191, 
    192, 
    193, 
    194, 
    195, 
    196, 
    197, 
    198, 
    199, 
    200, 
    201, 
    202, 
    203, 
    204, 
    205, 
    206, 
    207, 
    208, 
    209, 
    210, 
    211, 
    212, 
    213, 
    214, 
    215, 
    216, 
    217, 
    218, 
    219, 
    220, 
    221, 
    222, 
    223, 
    224, 
    225, 
    226, 
    227, 
    228, 
    229, 
    230, 
    231, 
    232, 
    233, 
    234, 
    235, 
    236, 
    237, 
    238, 
    239, 
    240, 
    241, 
    242, 
    243, 
    244, 
    245, 
    246, 
    247, 
    248, 
    249, 
    250, 
    251, 
    252, 
    253, 
    254, 
    255, 
    256, 
    257, 
    258, 
    259, 
    260, 
    261, 
    262, 
    263, 
    264, 
    265, 
    266, 
    267, 
    268, 
    269, 
    270, 
    271, 
    272, 
    273, 
    274, 
    275, 
    276, 
    277, 
    278, 
    279, 
    280, 
    281, 
    282, 
    283, 
    284, 
    285, 
    286, 
    287, 
    288, 
    289, 
    290, 
    291, 
    292, 
    293, 
    294, 
    295, 
    296, 
    297, 
    298, 
    299, 
    300, 
    301, 
    302, 
    303, 
    304, 
    305, 
    306, 
    307, 
    308, 
    309, 
    310, 
    311, 
    312, 
    313, 
    314, 
    315, 
    316, 
    317, 
    318, 
    319, 
    320, 
    321, 
    322, 
    323, 
    324, 
    325, 
    326, 
    327, 
    328, 
    329, 
    330, 
    331, 
    332, 
    333, 
    334, 
    335, 
    336, 
    337, 
    338, 
    339, 
    340, 
    341, 
    342, 
    343, 
    344, 
    345, 
    346, 
    347, 
    348, 
    349, 
    350, 
    351, 
    352, 
    353, 
    354, 
    355, 
    356, 
    357, 
    358, 
    359, 
    360, 
    361, 
    362, 
    363, 
    364, 
    365, 
    366, 
    367, 
    368, 
    369, 
    370, 
    371, 
    372, 
    373, 
    374, 
    375, 
    376, 
    377, 
    378, 
    379, 
    380, 
    381, 
    382, 
    383, 
    384, 
    385, 
    386, 
    387, 
    388, 
    389, 
    390, 
    391, 
    392, 
    393, 
    394, 
    395, 
    396, 
    397, 
    398, 
    399, 
    400, 
    401, 
    402, 
    403, 
    404, 
    405, 
    406, 
    407, 
    408, 
    409, 
    410, 
    411, 
    412, 
    413, 
    414, 
    415, 
    416, 
    417, 
    418, 
    419, 
    420, 
    421, 
    422, 
    423, 
    424, 
    425, 
    426, 
    427, 
    428, 
    429, 
    430, 
    431, 
    432, 
    433, 
    434, 
    435, 
    436, 
    437, 
    438, 
    439, 
    440, 
    441, 
    442, 
    443, 
    444, 
    445, 
    446, 
    447, 
    448, 
    449, 
    450, 
    451, 
    452, 
    453, 
    454, 
    455, 
    456, 
    457, 
    458, 
    459, 
    460, 
    461, 
    462, 
    463, 
    464, 
    465, 
    466, 
    467, 
    468, 
    469, 
    470, 
    471, 
    472, 
    473, 
    474, 
    475, 
    476, 
    477, 
    478, 
    479, 
    480, 
    481, 
    482, 
    483, 
    484, 
    485, 
    486, 
    487, 
    488, 
    489, 
    490, 
    491, 
    492, 
    493, 
    494, 
    495, 
    496, 
    497, 
    498, 
    499, 
    500, 
    501, 
    502, 
    503, 
    504, 
    505, 
    506, 
    507, 
    508, 
    509, 
    510, 
    511, 
    512, 
    513, 
    514, 
    515, 
    516, 
    517, 
    518, 
    519, 
    520, 
    521, 
    522, 
    523, 
    524, 
    525, 
    526, 
    527, 
    528, 
    529, 
    530, 
    531, 
    532, 
    533, 
    534, 
    535, 
    536, 
    537, 
    538, 
    539, 
    540, 
    541, 
    542, 
    543, 
    544, 
    545, 
    546, 
    547, 
    548, 
    549, 
    550, 
    551, 
    552, 
    553, 
    554, 
    555, 
    556, 
    557, 
    558, 
    559, 
    560, 
    561, 
    562, 
    563, 
    564, 
    565, 
    566, 
    567, 
    568, 
    569, 
    570, 
    571, 
    572, 
    573, 
    574, 
    575, 
    576, 
    577, 
    578, 
    579, 
    580, 
    581, 
    582, 
    583, 
    584, 
    585, 
    586, 
    587, 
    588, 
    589, 
    590, 
    591, 
    592, 
    593, 
    594, 
    595, 
    596, 
    597, 
    598, 
    599, 
    600, 
    601, 
    602, 
    603, 
    604, 
    605, 
    606, 
    607, 
    608, 
    609, 
    610, 
    611, 
    612, 
    613, 
    614, 
    615, 
    616, 
    617, 
    618, 
    619, 
    620, 
    621, 
    622, 
    623, 
    624, 
    625, 
    626, 
    627, 
    628, 
    629, 
    630, 
    631, 
    632, 
    633, 
    634, 
    635, 
    636, 
    637, 
    638, 
    639, 
    640, 
    641, 
    642, 
    643, 
    644, 
    645, 
    646, 
    647, 
    648, 
    649, 
    650, 
    651, 
    652, 
    653, 
    654, 
    655, 
    656, 
    657, 
    658, 
    659, 
    660, 
    661, 
    662, 
    663, 
    664, 
    665, 
    666, 
    667, 
    668, 
    669, 
    670, 
    671, 
    672, 
    673, 
    674, 
    675, 
    676, 
    677, 
    678, 
    679, 
    680, 
    681, 
    682, 
    683, 
    684, 
    685, 
    686, 
    687, 
    688, 
    689, 
    690, 
    691, 
    692, 
    693, 
    694, 
    695, 
    696, 
    697, 
    698, 
    699, 
    700, 
    701, 
    702, 
    703, 
    704, 
    705, 
    706, 
    707, 
    708, 
    709, 
    710, 
    711, 
    712, 
    713, 
    714, 
    715, 
    716, 
    717, 
    718, 
    719, 
    720, 
    721, 
    722, 
    723, 
    724, 
    725, 
    726, 
    727, 
    728, 
    729, 
    730, 
    731, 
    732, 
    733, 
    734, 
    735, 
    736, 
    737, 
    738, 
    739, 
    740, 
    741, 
    742, 
    743, 
    744, 
    745, 
    746, 
    747, 
    748, 
    749, 
    750, 
    751, 
    752, 
    753, 
    754, 
    755, 
    756, 
    757, 
    758, 
    759, 
    760, 
    761, 
    762, 
    763, 
    764, 
    765, 
    766, 
    767, 
    768, 
    769, 
    770, 
    771, 
    772, 
    773, 
    774, 
    775, 
    776, 
    777, 
    778, 
    779, 
    780, 
    781, 
    782, 
    783, 
    784, 
    785, 
    786, 
    787, 
    788, 
    789, 
    790, 
    791, 
    792, 
    793, 
    794, 
    795, 
    796, 
    797, 
    798, 
    799, 
    800, 
    801, 
    802, 
    803, 
    804, 
    805, 
    806, 
    807, 
    808, 
    809, 
    810, 
    811, 
    812, 
    813, 
    814, 
    815, 
    816, 
    817, 
    818, 
    819, 
    820, 
    821, 
    822, 
    823, 
    824, 
    825, 
    826, 
    827, 
    828, 
    829, 
    830, 
    831, 
    832, 
    833, 
    834, 
    835, 
    836, 
    837, 
    838, 
    839, 
    840, 
    841, 
    842, 
    843, 
    844, 
    845, 
    846, 
    847, 
    848, 
    849, 
    850, 
    851, 
    852, 
    853, 
    854, 
    855, 
    856, 
    857, 
    858, 
    859, 
    860, 
    861, 
    862, 
    863, 
    864, 
    865, 
    866, 
    867, 
    868, 
    869, 
    870, 
    871, 
    872, 
    873, 
    874, 
    875, 
    876, 
    877, 
    878, 
    879, 
    880, 
    881, 
    882, 
    883, 
    884, 
    885, 
    886, 
    887, 
    888, 
    889, 
    890, 
    891, 
    892, 
    893, 
    894, 
    895, 
    896, 
    897, 
    898, 
    899, 
    900, 
    901, 
    902, 
    903, 
    904, 
    905, 
    906, 
    907, 
    908, 
    909, 
    910, 
    911, 
    912, 
    913, 
    914, 
    915, 
    916, 
    917, 
    918, 
    919, 
    920, 
    921, 
    922, 
    923, 
    924, 
    925, 
    926, 
    927, 
    928, 
    929, 
    930, 
    931, 
    932, 
    933, 
    934, 
    935, 
    936, 
    937, 
    938, 
    939, 
    940, 
    941, 
    942, 
    943, 
    944, 
    945, 
    946, 
    947, 
    948, 
    949, 
    950, 
    951, 
    952, 
    953, 
    954, 
    955, 
    956, 
    957, 
    958, 
    959, 
    960, 
    961, 
    962, 
    963, 
    964, 
    965, 
    966, 
    967, 
    968, 
    969, 
    970, 
    971, 
    972, 
    973, 
    974, 
    975, 
    976, 
    977, 
    978, 
    979, 
    980, 
    981, 
    982, 
    983, 
    984, 
    985, 
    986, 
    987, 
    988, 
    989, 
    990, 
    991, 
    992, 
    993, 
    994, 
    995, 
    996, 
    997, 
    998, 
    999, 
    1000, 
    1001, 
    1002, 
    1003, 
    1004, 
    1005, 
    1006, 
    1007, 
    1008, 
    1009, 
    1010, 
    1011, 
    1012, 
    1013, 
    1014, 
    1015, 
    1016, 
    1017, 
    1018, 
    1019, 
    1020, 
    1021, 
    1022, 
    1023, 
    1024, 
    1025, 
    1026, 
    1027, 
    1028, 
    1029, 
    1030, 
    1031, 
    1032, 
    1033, 
    1034, 
    1035, 
    1036, 
    1037, 
    1038, 
    1039, 
    1040, 
    1041, 
    1042, 
    1043, 
    1044, 
    1045, 
    1046, 
    1047, 
    1048, 
    1049, 
    1050, 
    1051, 
    1052, 
    1053, 
    1054, 
    1055, 
    1056, 
    1057, 
    1058, 
    1059, 
    1060, 
    1061, 
    1062, 
    1063, 
    1064, 
    1065, 
    1066, 
    1067, 
    1068, 
    1069, 
    1070, 
    1071, 
    1072, 
    1073, 
    1074, 
    1075, 
    1076, 
    1077, 
    1078, 
    1079, 
    1080, 
    1081, 
    1082, 
    1083, 
    1084, 
    1085, 
    1086, 
    1087, 
    1088, 
    1089, 
    1090, 
    1091, 
    1092, 
    1093, 
    1094, 
    1095, 
    1096, 
    1097, 
    1098, 
    1099, 
    1100, 
    1101, 
    1102, 
    1103, 
    1104, 
    1105, 
    1106, 
    1107, 
    1108, 
    1109, 
    1110, 
    1111, 
    1112, 
    1113, 
    1114, 
    1115, 
    1116, 
    1117, 
    1118, 
    1119, 
    1120, 
    1121, 
    1122, 
    1123, 
    1124, 
    1125, 
    1126, 
    1127, 
    1128, 
    1129, 
    1130, 
    1131, 
    1132, 
    1133, 
    1134, 
    1135, 
    1136, 
    1137, 
    1138, 
    1139, 
    1140, 
    1141, 
    1142, 
    1143, 
    1144, 
    1145, 
    1146, 
    1147, 
    1148, 
    1149, 
    1150, 
    1151, 
    1152, 
    1153, 
    1154, 
    1155, 
    1156, 
    1157, 
    1158, 
    1159, 
    1160, 
    1161, 
    1162, 
    1163, 
    1164, 
    1165, 
    1166, 
    1167, 
    1168, 
    1169, 
    1170, 
    1171, 
    1172, 
    1173, 
    1174, 
    1175, 
    1176, 
    1177, 
    1178, 
    1179, 
    1180, 
    1181, 
    1182, 
    1183, 
    1184, 
    1185, 
    1186, 
    1187, 
    1188, 
    1189, 
    1190, 
    1191, 
    1192, 
    1193, 
    1194, 
    1195, 
    1196, 
    1197, 
    1198, 
    1199, 
    1200, 
    1201, 
    1202, 
    1203, 
    1204, 
    1205, 
    1206, 
    1207, 
    1208, 
    1209, 
    1210, 
    1211, 
    1212, 
    1213, 
    1214, 
    1215, 
    1216, 
    1217, 
    1218, 
    1219, 
    1220, 
    1221, 
    1222, 
    1223, 
    1224, 
    1225, 
    1226, 
    1227, 
    1228, 
    1229, 
    1230, 
    1231, 
    1232, 
    1233, 
    1234, 
    1235, 
    1236, 
    1237, 
    1238, 
    1239, 
    1240, 
    1241, 
    1242, 
    1243, 
    1244, 
    1245, 
    1246, 
    1247, 
    1248, 
    1249, 
    1250, 
    1251, 
    1252, 
    1253, 
    1254, 
    1255, 
    1256, 
    1257, 
    1258, 
    1259, 
    1260, 
    1261, 
    1262, 
    1263, 
    1264, 
    1265, 
    1266, 
    1267, 
    1268, 
    1269, 
    1270, 
    1271, 
    1272, 
    1273, 
    1274, 
    1275, 
    1276, 
    1277, 
    1278, 
    1279, 
    1280, 
    1281, 
    1282, 
    1283, 
    1284, 
    1285, 
    1286, 
    1287, 
    1288, 
    1289, 
    1290, 
    1291, 
    1292, 
    1293, 
    1294, 
    1295, 
    1296, 
    1297, 
    1298, 
    1299, 
    1300, 
    1301, 
    1302, 
    1303, 
    1304, 
    1305, 
    1306, 
    1307, 
    1308, 
    1309, 
    1310, 
    1311, 
    1312, 
    1313, 
    1314, 
    1315, 
    1316, 
    1317, 
    1318, 
    1319, 
    1320, 
    1321, 
    1322, 
    1323, 
    1324, 
    1325, 
    1326, 
    1327, 
    1328, 
    1329, 
    1330, 
    1331, 
    1332, 
    1333, 
    1334, 
    1335, 
    1336, 
    1337, 
    1338, 
    1339, 
    1340, 
    1341, 
    1342, 
    1343, 
    1344, 
    1345, 
    1346, 
    1347, 
    1348, 
    1349, 
    1350, 
    1351, 
    1352, 
    1353, 
    1354, 
    1355, 
    1356, 
    1357, 
    1358, 
    1359, 
    1360, 
    1361, 
    1362, 
    1363, 
    1364, 
    1365, 
    1366, 
    1367, 
    1368, 
    1369, 
    1370, 
    1371, 
    1372, 
    1373, 
    1374, 
    1375, 
    1376, 
    1377, 
    1378, 
    1379, 
    1380, 
    1381, 
    1382, 
    1383, 
    1384, 
    1385, 
    1386, 
    1387, 
    1388, 
    1389, 
    1390, 
    1391, 
    1392, 
    1393, 
    1394, 
    1395, 
    1396, 
    1397, 
    1398, 
    1399, 
    1400, 
    1401, 
    1402, 
    1403, 
    1404, 
    1405, 
    1406, 
    1407, 
    1408, 
    1409, 
    1410, 
    1411, 
    1412, 
    1413, 
    1414, 
    1415, 
    1416, 
    1417, 
    1418, 
    1419, 
    1420, 
    1421, 
    1422, 
    1423, 
    1424, 
    1425, 
    1426, 
    1427, 
    1428, 
    1429, 
    1430, 
    1431, 
    1432, 
    1433, 
    1434, 
    1435, 
    1436, 
    1437, 
    1438, 
    1439, 
    1440, 
    1441, 
    1442, 
    1443, 
    1444, 
    1445, 
    1446, 
    1447, 
    1448, 
    1449, 
    1450, 
    1451, 
    1452, 
    1453, 
    1454, 
    1455, 
    1456, 
    1457, 
    1458, 
    1459, 
    1460, 
    1461, 
    1462, 
    1463, 
    1464, 
    1465, 
    1466, 
    1467, 
    1468, 
    1469, 
    1470, 
    1471, 
    1472, 
    1473, 
    1474, 
    1475, 
    1476, 
    1477, 
    1478, 
    1479, 
    1480, 
    1481, 
    1482, 
    1483, 
    1484, 
    1485, 
    1486, 
    1487, 
    1488, 
    1489, 
    1490, 
    1491, 
    1492, 
    1493, 
    1494, 
    1495, 
    1496, 
    1497, 
    1498, 
    1499, 
    1500, 
    1501, 
    1502, 
    1503, 
    1504, 
    1505, 
    1506, 
    1507, 
    1508, 
    1509, 
    1510, 
    1511, 
    1512, 
    1513, 
    1514, 
    1515, 
    1516, 
    1517, 
    1518, 
    1519, 
    1520, 
    1521, 
    1522, 
    1523, 
    1524, 
    1525, 
    1526, 
    1527, 
    1528, 
    1529, 
    1530, 
    1531, 
    1532, 
    1533, 
    1534, 
    1535, 
    1536, 
    1537, 
    1538, 
    1539, 
    1540, 
    1541, 
    1542, 
    1543, 
    1544, 
    1545, 
    1546, 
    1547, 
    1548, 
    1549, 
    1550, 
    1551, 
    1552, 
    1553, 
    1554, 
    1555, 
    1556, 
    1557, 
    1558, 
    1559, 
    1560, 
    1561, 
    1562, 
    1563, 
    1564, 
    1565, 
    1566, 
    1567, 
    1568, 
    1569, 
    1570, 
    1571, 
    1572, 
    1573, 
    1574, 
    1575, 
    1576, 
    1577, 
    1578, 
    1579, 
    1580, 
    1581, 
    1582, 
    1583, 
    1584, 
    1585, 
    1586, 
    1587, 
    1588, 
    1589, 
    1590, 
    1591, 
    1592, 
    1593, 
    1594, 
    1595, 
    1596, 
    1597, 
    1598, 
    1599, 
    1600, 
    1601, 
    1602, 
    1603, 
    1604, 
    1605, 
    1606, 
    1607, 
    1608, 
    1609, 
    1610, 
    1611, 
    1612, 
    1613, 
    1614, 
    1615, 
    1616, 
    1617, 
    1618, 
    1619, 
    1620, 
    1621, 
    1622, 
    1623, 
    1624, 
    1625, 
    1626, 
    1627, 
    1628, 
    1629, 
    1630, 
    1631, 
    1632, 
    1633, 
    1634, 
    1635, 
    1636, 
    1637, 
    1638, 
    1639, 
    1640, 
    1641, 
    1642, 
    1643, 
    1644, 
    1645, 
    1646, 
    1647, 
    1648, 
    1649, 
    1650, 
    1651, 
    1652, 
    1653, 
    1654, 
    1655, 
    1656, 
    1657, 
    1658, 
    1659, 
    1660, 
    1661, 
    1662, 
    1663, 
    1664, 
    1665, 
    1666, 
    1667, 
    1668, 
    1669, 
    1670, 
    1671, 
    1672, 
    1673, 
    1674, 
    1675, 
    1676, 
    1677, 
    1678, 
    1679, 
    1680, 
    1681, 
    1682, 
    1683, 
    1684, 
    1685, 
    1686, 
    1687, 
    1688, 
    1689, 
    1690, 
    1691, 
    1692, 
    1693, 
    1694, 
    1695, 
    1696, 
    1697, 
    1698, 
    1699, 
    1700, 
    1701, 
    1702, 
    1703, 
    1704, 
    1705, 
    1706, 
    1707, 
    1708, 
    1709, 
    1710, 
    1711, 
    1712, 
    1713, 
    1714, 
    1715, 
    1716, 
    1717, 
    1718, 
    1719, 
    1720, 
    1721, 
    1722, 
    1723, 
    1724, 
    1725, 
    1726, 
    1727, 
    1728, 
    1729, 
    1730, 
    1731, 
    1732, 
    1733, 
    1734, 
    1735, 
    1736, 
    1737, 
    1738, 
    1739, 
    1740, 
    1741, 
    1742, 
    1743, 
    1744, 
    1745, 
    1746, 
    1747, 
    1748, 
    1749, 
    1750, 
    1751, 
    1752, 
    1753, 
    1754, 
    1755, 
    1756, 
    1757, 
    1758, 
    1759, 
    1760, 
    1761, 
    1762, 
    1763, 
    1764, 
    1765, 
    1766, 
    1767, 
    1768, 
    1769, 
    1770, 
    1771, 
    1772, 
    1773, 
    1774, 
    1775, 
    1776, 
    1777, 
    1778, 
    1779, 
    1780, 
    1781, 
    1782, 
    1783, 
    1784, 
    1785, 
    1786, 
    1787, 
    1788, 
    1789, 
    1790, 
    1791, 
    1792, 
    1793, 
    1794, 
    1795, 
    1796, 
    1797, 
    1798, 
    1799, 
    1800, 
    1801, 
    1802, 
    1803, 
    1804, 
    1805, 
    1806, 
    1807, 
    1808, 
    1809, 
    1810, 
    1811, 
    1812, 
    1813, 
    1814, 
    1815, 
    1816, 
    1817, 
    1818, 
    1819, 
    1820, 
    1821, 
    1822, 
    1823, 
    1824, 
    1825, 
    1826, 
    1827, 
    1828, 
    1829, 
    1830, 
    1831, 
    1832, 
    1833, 
    1834, 
    1835, 
    1836, 
    1837, 
    1838, 
    1839, 
    1840, 
    1841, 
    1842, 
    1843, 
    1844, 
    1845, 
    1846, 
    1847, 
    1848, 
    1849, 
    1850, 
    1851, 
    1852, 
    1853, 
    1854, 
    1855, 
    1856, 
    1857, 
    1858, 
    1859, 
    1860, 
    1861, 
    1862, 
    1863, 
    1864, 
    1865, 
    1866, 
    1867, 
    1868, 
    1869, 
    1870, 
    1871, 
    1872, 
    1873, 
    1874, 
    1875, 
    1876, 
    1877, 
    1878, 
    1879, 
    1880, 
    1881, 
    1882, 
    1883, 
    1884, 
    1885, 
    1886, 
    1887, 
    1888, 
    1889, 
    1890, 
    1891, 
    1892, 
    1893, 
    1894, 
    1895, 
    1896, 
    1897, 
    1898, 
    1899, 
    1900, 
    1901, 
    1902, 
    1903, 
    1904, 
    1905, 
    1906, 
    1907, 
    1908, 
    1909, 
    1910, 
    1911, 
    1912, 
    1913, 
    1914, 
    1915, 
    1916, 
    1917, 
    1918, 
    1919, 
    1920, 
    1921, 
    1922, 
    1923, 
    1924, 
    1925, 
    1926, 
    1927, 
    1928, 
    1929, 
    1930, 
    1931, 
    1932, 
    1933, 
    1934, 
    1935, 
    1936, 
    1937, 
    1938, 
    1939, 
    1940, 
    1941, 
    1942, 
    1943, 
    1944, 
    1945, 
    1946, 
    1947, 
    1948, 
    1949, 
    1950, 
    1951, 
    1952, 
    1953, 
    1954, 
    1955, 
    1956, 
    1957, 
    1958, 
    1959, 
    1960, 
    1961, 
    1962, 
    1963, 
    1964, 
    1965, 
    1966, 
    1967, 
    1968, 
    1969, 
    1970, 
    1971, 
    1972, 
    1973, 
    1974, 
    1975, 
    1976, 
    1977, 
    1978, 
    1979, 
    1980, 
    1981, 
    1982, 
    1983, 
    1984, 
    1985, 
    1986, 
    1987, 
    1988, 
    1989, 
    1990, 
    1991, 
    1992, 
    1993, 
    1994, 
    1995, 
    1996, 
    1997, 
    1998, 
    1999, 
    2000, 
    2001, 
    2002, 
    2003, 
    2004, 
    2005, 
    2006, 
    2007, 
    2008, 
    2009, 
    2010, 
    2011, 
    2012, 
    2013, 
    2014, 
    2015, 
    2016, 
    2017, 
    2018, 
    2019, 
    2020, 
    2021, 
    2022, 
    2023, 
    2024, 
    2025, 
    2026, 
    2027, 
    2028, 
    2029, 
    2030, 
    2031, 
    2032, 
    2033, 
    2034, 
    2035, 
    2036, 
    2037, 
    2038, 
    2039, 
    2040, 
    2041, 
    2042, 
    2043, 
    2044, 
    2045, 
    2046, 
    2047, 
    2048, 
    2049, 
    2050, 
    2051, 
    2052, 
    2053, 
    2054, 
    2055, 
    2056, 
    2057, 
    2058, 
    2059, 
    2060, 
    2061, 
    2062, 
    2063, 
    2064, 
    2065, 
    2066, 
    2067, 
    2068, 
    2069, 
    2070, 
    2071, 
    2072, 
    2073, 
    2074, 
    2075, 
    2076, 
    2077, 
    2078, 
    2079, 
    2080, 
    2081, 
    2082, 
    2083, 
    2084, 
    2085, 
    2086, 
    2087, 
    2088, 
    2089, 
    2090, 
    2091, 
    2092, 
    2093, 
    2094, 
    2095, 
    2096, 
    2097, 
    2098, 
    2099, 
    2100, 
    2101, 
    2102, 
    2103, 
    2104, 
    2105, 
    2106, 
    2107, 
    2108, 
    2109, 
    2110, 
    2111, 
    2112, 
    2113, 
    2114, 
    2115, 
    2116, 
    2117, 
    2118, 
    2119, 
    2120, 
    2121, 
    2122, 
    2123, 
    2124, 
    2125, 
    2126, 
    2127, 
    2128, 
    2129, 
    2130, 
    2131, 
    2132, 
    2133, 
    2134, 
    2135, 
    2136, 
    2137, 
    2138, 
    2139, 
    2140, 
    2141, 
    2142, 
    2143, 
    2144, 
    2145, 
    2146, 
    2147, 
    2148, 
    2149, 
    2150, 
    2151, 
    2152, 
    2153, 
    2154, 
    2155, 
    2156, 
    2157, 
    2158, 
    2159, 
    2160, 
    2161, 
    2162, 
    2163, 
    2164, 
    2165, 
    2166, 
    2167, 
    2168, 
    2169, 
    2170, 
    2171, 
    2172, 
    2173, 
    2174, 
    2175, 
    2176, 
    2177, 
    2178, 
    2179, 
    2180, 
    2181, 
    2182, 
    2183, 
    2184, 
    2185, 
    2186, 
    2187, 
    2188, 
    2189, 
    2190, 
    2191, 
    2192, 
    2193, 
    2194, 
    2195, 
    2196, 
    2197, 
    2198, 
    2199, 
    2200, 
    2201, 
    2202, 
    2203, 
    2204, 
    2205, 
    2206, 
    2207, 
    2208, 
    2209, 
    2210, 
    2211, 
    2212, 
    2213, 
    2214, 
    2215, 
    2216, 
    2217, 
    2218, 
    2219, 
    2220, 
    2221, 
    2222, 
    2223, 
    2224, 
    2225, 
    2226, 
    2227, 
    2228, 
    2229, 
    2230, 
    2231, 
    2232, 
    2233, 
    2234, 
    2235, 
    2236, 
    2237, 
    2238, 
    2239, 
    2240, 
    2241, 
    2242, 
    2243, 
    2244, 
    2245, 
    2246, 
    2247, 
    2248, 
    2249, 
    2250, 
    2251, 
    2252, 
    2253, 
    2254, 
    2255, 
    2256, 
    2257, 
    2258, 
    2259, 
    2260, 
    2261, 
    2262, 
    2263, 
    2264, 
    2265, 
    2266, 
    2267, 
    2268, 
    2269, 
    2270, 
    2271, 
    2272, 
    2273, 
    2274, 
    2275, 
    2276, 
    2277, 
    2278, 
    2279, 
    2280, 
    2281, 
    2282, 
    2283, 
    2284, 
    2285, 
    2286, 
    2287, 
    2288, 
    2289, 
    2290, 
    2291, 
    2292, 
    2293, 
    2294, 
    2295, 
    2296, 
    2297, 
    2298, 
    2299, 
    2300, 
    2301, 
    2302, 
    2303, 
    2304, 
    2305, 
    2306, 
    2307, 
    2308, 
    2309, 
    2310, 
    2311, 
    2312, 
    2313, 
    2314, 
    2315, 
    2316, 
    2317, 
    2318, 
    2319, 
    2320, 
    2321, 
    2322, 
    2323, 
    2324, 
    2325, 
    2326, 
    2327, 
    2328, 
    2329, 
    2330, 
    2331, 
    2332, 
    2333, 
    2334, 
    2335, 
    2336, 
    2337, 
    2338, 
    2339, 
    2340, 
    2341, 
    2342, 
    2343, 
    2344, 
    2345, 
    2346, 
    2347, 
    2348, 
    2349, 
    2350, 
    2351, 
    2352, 
    2353, 
    2354, 
    2355, 
    2356, 
    2357, 
    2358, 
    2359, 
    2360, 
    2361, 
    2362, 
    2363, 
    2364, 
    2365, 
    2366, 
    2367, 
    2368, 
    2369, 
    2370, 
    2371, 
    2372, 
    2373, 
    2374, 
    2375, 
    2376, 
    2377, 
    2378, 
    2379, 
    2380, 
    2381, 
    2382, 
    2383, 
    2384, 
    2385, 
    2386, 
    2387, 
    2388, 
    2389, 
    2390, 
    2391, 
    2392, 
    2393, 
    2394, 
    2395, 
    2396, 
    2397, 
    2398, 
    2399, 
    2400, 
    2401, 
    2402, 
    2403, 
    2404, 
    2405, 
    2406, 
    2407, 
    2408, 
    2409, 
    2410, 
    2411, 
    2412, 
    2413, 
    2414, 
    2415, 
    2416, 
    2417, 
    2418, 
    2419, 
    2420, 
    2421, 
    2422, 
    2423, 
    2424, 
    2425, 
    2426, 
    2427, 
    2428, 
    2429, 
    2430, 
    2431, 
    2432, 
    2433, 
    2434, 
    2435, 
    2436, 
    2437, 
    2438, 
    2439, 
    2440, 
    2441, 
    2442, 
    2443, 
    2444, 
    2445, 
    2446, 
    2447, 
    2448, 
    2449, 
    2450, 
    2451, 
    2452, 
    2453, 
    2454, 
    2455, 
    2456, 
    2457, 
    2458, 
    2459, 
    2460, 
    2461, 
    2462, 
    2463, 
    2464, 
    2465, 
    2466, 
    2467, 
    2468, 
    2469, 
    2470, 
    2471, 
    2472, 
    2473, 
    2474, 
    2475, 
    2476, 
    2477, 
    2478, 
    2479, 
    2480, 
    2481, 
    2482, 
    2483, 
    2484, 
    2485, 
    2486, 
    2487, 
    2488, 
    2489, 
    2490, 
    2491, 
    2492, 
    2493, 
    2494, 
    2495, 
    2496, 
    2497, 
    2498, 
    2499, 
    2500, 
    2501, 
    2502, 
    2503, 
    2504, 
    2505, 
    2506, 
    2507, 
    2508, 
    2509, 
    2510, 
    2511, 
    2512, 
    2513, 
    2514, 
    2515, 
    2516, 
    2517, 
    2518, 
    2519, 
    2520, 
    2521, 
    2522, 
    2523, 
    2524, 
    2525, 
    2526, 
    2527, 
    2528, 
    2529, 
    2530, 
    2531, 
    2532, 
    2533, 
    2534, 
    2535, 
    2536, 
    2537, 
    2538, 
    2539, 
    2540, 
    2541, 
    2542, 
    2543, 
    2544, 
    2545, 
    2546, 
    2547, 
    2548, 
    2549, 
    2550, 
    2551, 
    2552, 
    2553, 
    2554, 
    2555, 
    2556, 
    2557, 
    2558, 
    2559, 
    2560, 
    2561, 
    2562, 
    2563, 
    2564, 
    2565, 
    2566, 
    2567, 
    2568, 
    2569, 
    2570, 
    2571, 
    2572, 
    2573, 
    2574, 
    2575, 
    2576, 
    2577, 
    2578, 
    2579, 
    2580, 
    2581, 
    2582, 
    2583, 
    2584, 
    2585, 
    2586, 
    2587, 
    2588, 
    2589, 
    2590, 
    2591, 
    2592, 
    2593, 
    2594, 
    2595, 
    2596, 
    2597, 
    2598, 
    2599, 
    2600, 
    2601, 
    2602, 
    2603, 
    2604, 
    2605, 
    2606, 
    2607, 
    2608, 
    2609, 
    2610, 
    2611, 
    2612, 
    2613, 
    2614, 
    2615, 
    2616, 
    2617, 
    2618, 
    2619, 
    2620, 
    2621, 
    2622, 
    2623, 
    2624, 
    2625, 
    2626, 
    2627, 
    2628, 
    2629, 
    2630, 
    2631, 
    2632, 
    2633, 
    2634, 
    2635, 
    2636, 
    2637, 
    2638, 
    2639, 
    2640, 
    2641, 
    2642, 
    2643, 
    2644, 
    2645, 
    2646, 
    2647, 
    2648, 
    2649, 
    2650, 
    2651, 
    2652, 
    2653, 
    2654, 
    2655, 
    2656, 
    2657, 
    2658, 
    2659, 
    2660, 
    2661, 
    2662, 
    2663, 
    2664, 
    2665, 
    2666, 
    2667, 
    2668, 
    2669, 
    2670, 
    2671, 
    2672, 
    2673, 
    2674, 
    2675, 
    2676, 
    2677, 
    2678, 
    2679, 
    2680, 
    2681, 
    2682, 
    2683, 
    2684, 
    2685, 
    2686, 
    2687, 
    2688, 
    2689, 
    2690, 
    2691, 
    2692, 
    2693, 
    2694, 
    2695, 
    2696, 
    2697, 
    2698, 
    2699, 
    2700, 
    2701, 
    2702, 
    2703, 
    2704, 
    2705, 
    2706, 
    2707, 
    2708, 
    2709, 
    2710, 
    2711, 
    2712, 
    2713, 
    2714, 
    2715, 
    2716, 
    2717, 
    2718, 
    2719, 
    2720, 
    2721, 
    2722, 
    2723, 
    2724, 
    2725, 
    2726, 
    2727, 
    2728, 
    2729, 
    2730, 
    2731, 
    2732, 
    2733, 
    2734, 
    2735, 
    2736, 
    2737, 
    2738, 
    2739, 
    2740, 
    2741, 
    2742, 
    2743, 
    2744, 
    2745, 
    2746, 
    2747, 
    2748, 
    2749, 
    2750, 
    2751, 
    2752, 
    2753, 
    2754, 
    2755, 
    2756, 
    2757, 
    2758, 
    2759, 
    2760, 
    2761, 
    2762, 
    2763, 
    2764, 
    2765, 
    2766, 
    2767, 
    2768, 
    2769, 
    2770, 
    2771, 
    2772, 
    2773, 
    2774, 
    2775, 
    2776, 
    2777, 
    2778, 
    2779, 
    2780, 
    2781, 
    2782, 
    2783, 
    2784, 
    2785, 
    2786, 
    2787, 
    2788, 
    2789, 
    2790, 
    2791, 
    2792, 
    2793, 
    2794, 
    2795, 
    2796, 
    2797, 
    2798, 
    2799, 
    2800, 
    2801, 
    2802, 
    2803, 
    2804, 
    2805, 
    2806, 
    2807, 
    2808, 
    2809, 
    2810, 
    2811, 
    2812, 
    2813, 
    2814, 
    2815, 
    2816, 
    2817, 
    2818, 
    2819, 
    2820, 
    2821, 
    2822, 
    2823, 
    2824, 
    2825, 
    2826, 
    2827, 
    2828, 
    2829, 
    2830, 
    2831, 
    2832, 
    2833, 
    2834, 
    2835, 
    2836, 
    2837, 
    2838, 
    2839, 
    2840, 
    2841, 
    2842, 
    2843, 
    2844, 
    2845, 
    2846, 
    2847, 
    2848, 
    2849, 
    2850, 
    2851, 
    2852, 
    2853, 
    2854, 
    2855, 
    2856, 
    2857, 
    2858, 
    2859, 
    2860, 
    2861, 
    2862, 
    2863, 
    2864, 
    2865, 
    2866, 
    2867, 
    2868, 
    2869, 
    2870, 
    2871, 
    2872, 
    2873, 
    2874, 
    2875, 
    2876, 
    2877, 
    2878, 
    2879, 
    2880, 
    2881, 
    2882, 
    2883, 
    2884, 
    2885, 
    2886, 
    2887, 
    2888, 
    2889, 
    2890, 
    2891, 
    2892, 
    2893, 
    2894, 
    2895, 
    2896, 
    2897, 
    2898, 
    2899, 
    2900, 
    2901, 
    2902, 
    2903, 
    2904, 
    2905, 
    2906, 
    2907, 
    2908, 
    2909, 
    2910, 
    2911, 
    2912, 
    2913, 
    2914, 
    2915, 
    2916, 
    2917, 
    2918, 
    2919, 
    2920, 
    2921, 
    2922, 
    2923, 
    2924, 
    2925, 
    2926, 
    2927, 
    2928, 
    2929, 
    2930, 
    2931, 
    2932, 
    2933, 
    2934, 
    2935, 
    2936, 
    2937, 
    2938, 
    2939, 
    2940, 
    2941, 
    2942, 
    2943, 
    2944, 
    2945, 
    2946, 
    2947, 
    2948, 
    2949, 
    2950, 
    2951, 
    2952, 
    2953, 
    2954, 
    2955, 
    2956, 
    2957, 
    2958, 
    2959, 
    2960, 
    2961, 
    2962, 
    2963, 
    2964, 
    2965, 
    2966, 
    2967, 
    2968, 
    2969, 
    2970, 
    2971, 
    2972, 
    2973, 
    2974, 
    2975, 
    2976, 
    2977, 
    2978, 
    2979, 
    2980, 
    2981, 
    2982, 
    2983, 
    2984, 
    2985, 
    2986, 
    2987, 
    2988, 
    2989, 
    2990, 
    2991, 
    2992, 
    2993, 
    2994, 
    2995, 
    2996, 
    2997, 
    2998, 
    2999, 
    3000, 
    3001, 
    3002, 
    3003, 
    3004, 
    3005, 
    3006, 
    3007, 
    3008, 
    3009, 
    3010, 
    3011, 
    3012, 
    3013, 
    3014, 
    3015, 
    3016, 
    3017, 
    3018, 
    3019, 
    3020, 
    3021, 
    3022, 
    3023, 
    3024, 
    3025, 
    3026, 
    3027, 
    3028, 
    3029, 
    3030, 
    3031, 
    3032, 
    3033, 
    3034, 
    3035, 
    3036, 
    3037, 
    3038, 
    3039, 
    3040, 
    3041, 
    3042, 
    3043, 
    3044, 
    3045, 
    3046, 
    3047, 
    3048, 
    3049, 
    3050, 
    3051, 
    3052, 
    3053, 
    3054, 
    3055, 
    3056, 
    3057, 
    3058, 
    3059, 
    3060, 
    3061, 
    3062, 
    3063, 
    3064, 
    3065, 
    3066, 
    3067, 
    3068, 
    3069, 
    3070, 
    3071, 
    3072, 
    3073, 
    3074, 
    3075, 
    3076, 
    3077, 
    3078, 
    3079, 
    3080, 
    3081, 
    3082, 
    3083, 
    3084, 
    3085, 
    3086, 
    3087, 
    3088, 
    3089, 
    3090, 
    3091, 
    3092, 
    3093, 
    3094, 
    3095, 
    3096, 
    3097, 
    3098, 
    3099, 
    3100, 
    3101, 
    3102, 
    3103, 
    3104, 
    3105, 
    3106, 
    3107, 
    3108, 
    3109, 
    3110, 
    3111, 
    3112, 
    3113, 
    3114, 
    3115, 
    3116, 
    3117, 
    3118, 
    3119, 
    3120, 
    3121, 
    3122, 
    3123, 
    3124, 
    3125, 
    3126, 
    3127, 
    3128, 
    3129, 
    3130, 
    3131, 
    3132, 
    3133, 
    3134, 
    3135, 
    3136, 
    3137, 
    3138, 
    3139, 
    3140, 
    3141, 
    3142, 
    3143, 
    3144, 
    3145, 
    3146, 
    3147, 
    3148, 
    3149, 
    3150, 
    3151, 
    3152, 
    3153, 
    3154, 
    3155, 
    3156, 
    3157, 
    3158, 
    3159, 
    3160, 
    3161, 
    3162, 
    3163, 
    3164, 
    3165, 
    3166, 
    3167, 
    3168, 
    3169, 
    3170, 
    3171, 
    3172, 
    3173, 
    3174, 
    3175, 
    3176, 
    3177, 
    3178, 
    3179, 
    3180, 
    3181, 
    3182, 
    3183, 
    3184, 
    3185, 
    3186, 
    3187, 
    3188, 
    3189, 
    3190, 
    3191, 
    3192, 
    3193, 
    3194, 
    3195, 
    3196, 
    3197, 
    3198, 
    3199, 
    3200, 
    3201, 
    3202, 
    3203, 
    3204, 
    3205, 
    3206, 
    3207, 
    3208, 
    3209, 
    3210, 
    3211, 
    3212, 
    3213, 
    3214, 
    3215, 
    3216, 
    3217, 
    3218, 
    3219, 
    3220, 
    3221, 
    3222, 
    3223, 
    3224, 
    3225, 
    3226, 
    3227, 
    3228, 
    3229, 
    3230, 
    3231, 
    3232, 
    3233, 
    3234, 
    3235, 
    3236, 
    3237, 
    3238, 
    3239, 
    3240, 
    3241, 
    3242, 
    3243, 
    3244, 
    3245, 
    3246, 
    3247, 
    3248, 
    3249, 
    3250, 
    3251, 
    3252, 
    3253, 
    3254, 
    3255, 
    3256, 
    3257, 
    3258, 
    3259, 
    3260, 
    3261, 
    3262, 
    3263, 
    3264, 
    3265, 
    3266, 
    3267, 
    3268, 
    3269, 
    3270, 
    3271, 
    3272, 
    3273, 
    3274, 
    3275, 
    3276, 
    3277, 
    3278, 
    3279, 
    3280, 
    3281, 
    3282, 
    3283, 
    3284, 
    3285, 
    3286, 
    3287, 
    3288, 
    3289, 
    3290, 
    3291, 
    3292, 
    3293, 
    3294, 
    3295, 
    3296, 
    3297, 
    3298, 
    3299, 
    3300, 
    3301, 
    3302, 
    3303, 
    3304, 
    3305, 
    3306, 
    3307, 
    3308, 
    3309, 
    3310, 
    3311, 
    3312, 
    3313, 
    3314, 
    3315, 
    3316, 
    3317, 
    3318, 
    3319, 
    3320, 
    3321, 
    3322, 
    3323, 
    3324, 
    3325, 
    3326, 
    3327, 
    3328, 
    3329, 
    3330, 
    3331, 
    3332, 
    3333, 
    3334, 
    3335, 
    3336, 
    3337, 
    3338, 
    3339, 
    3340, 
    3341, 
    3342, 
    3343, 
    3344, 
    3345, 
    3346, 
    3347, 
    3348, 
    3349, 
    3350, 
    3351, 
    3352, 
    3353, 
    3354, 
    3355, 
    3356, 
    3357, 
    3358, 
    3359, 
    3360, 
    3361, 
    3362, 
    3363, 
    3364, 
    3365, 
    3366, 
    3367, 
    3368, 
    3369, 
    3370, 
    3371, 
    3372, 
    3373, 
    3374, 
    3375, 
    3376, 
    3377, 
    3378, 
    3379, 
    3380, 
    3381, 
    3382, 
    3383, 
    3384, 
    3385, 
    3386, 
    3387, 
    3388, 
    3389, 
    3390, 
    3391, 
    3392, 
    3393, 
    3394, 
    3395, 
    3396, 
    3397, 
    3398, 
    3399, 
    3400, 
    3401, 
    3402, 
    3403, 
    3404, 
    3405, 
    3406, 
    3407, 
    3408, 
    3409, 
    3410, 
    3411, 
    3412, 
    3413, 
    3414, 
    3415, 
    3416, 
    3417, 
    3418, 
    3419, 
    3420, 
    3421, 
    3422, 
    3423, 
    3424, 
    3425, 
    3426, 
    3427, 
    3428, 
    3429, 
    3430, 
    3431, 
    3432, 
    3433, 
    3434, 
    3435, 
    3436, 
    3437, 
    3438, 
    3439, 
    3440, 
    3441, 
    3442, 
    3443, 
    3444, 
    3445, 
    3446, 
    3447, 
    3448, 
    3449, 
    3450, 
    3451, 
    3452, 
    3453, 
    3454, 
    3455, 
    3456, 
    3457, 
    3458, 
    3459, 
    3460, 
    3461, 
    3462, 
    3463, 
    3464, 
    3465, 
    3466, 
    3467, 
    3468, 
    3469, 
    3470, 
    3471, 
    3472, 
    3473, 
    3474, 
    3475, 
    3476, 
    3477, 
    3478, 
    3479, 
    3480, 
    3481, 
    3482, 
    3483, 
    3484, 
    3485, 
    3486, 
    3487, 
    3488, 
    3489, 
    3490, 
    3491, 
    3492, 
    3493, 
    3494, 
    3495, 
    3496, 
    3497, 
    3498, 
    3499, 
    3500, 
    3501, 
    3502, 
    3503, 
    3504, 
    3505, 
    3506, 
    3507, 
    3508, 
    3509, 
    3510, 
    3511, 
    3512, 
    3513, 
    3514, 
    3515, 
    3516, 
    3517, 
    3518, 
    3519, 
    3520, 
    3521, 
    3522, 
    3523, 
    3524, 
    3525, 
    3526, 
    3527, 
    3528, 
    3529, 
    3530, 
    3531, 
    3532, 
    3533, 
    3534, 
    3535, 
    3536, 
    3537, 
    3538, 
    3539, 
    3540, 
    3541, 
    3542, 
    3543, 
    3544, 
    3545, 
    3546, 
    3547, 
    3548, 
    3549, 
    3550, 
    3551, 
    3552, 
    3553, 
    3554, 
    3555, 
    3556, 
    3557, 
    3558, 
    3559, 
    3560, 
    3561, 
    3562, 
    3563, 
    3564, 
    3565, 
    3566, 
    3567, 
    3568, 
    3569, 
    3570, 
    3571, 
    3572, 
    3573, 
    3574, 
    3575, 
    3576, 
    3577, 
    3578, 
    3579, 
    3580, 
    3581, 
    3582, 
    3583, 
    3584, 
    3585, 
    3586, 
    3587, 
    3588, 
    3589, 
    3590, 
    3591, 
    3592, 
    3593, 
    3594, 
    3595, 
    3596, 
    3597, 
    3598, 
    3599, 
    3600, 
    3601, 
    3602, 
    3603, 
    3604, 
    3605, 
    3606, 
    3607, 
    3608, 
    3609, 
    3610, 
    3611, 
    3612, 
    3613, 
    3614, 
    3615, 
    3616, 
    3617, 
    3618, 
    3619, 
    3620, 
    3621, 
    3622, 
    3623, 
    3624, 
    3625, 
    3626, 
    3627, 
    3628, 
    3629, 
    3630, 
    3631, 
    3632, 
    3633, 
    3634, 
    3635, 
    3636, 
    3637, 
    3638, 
    3639, 
    3640, 
    3641, 
    3642, 
    3643, 
    3644, 
    3645, 
    3646, 
    3647, 
    3648, 
    3649, 
    3650, 
    3651, 
    3652, 
    3653, 
    3654, 
    3655, 
    3656, 
    3657, 
    3658, 
    3659, 
    3660, 
    3661, 
    3662, 
    3663, 
    3664, 
    3665, 
    3666, 
    3667, 
    3668, 
    3669, 
    3670, 
    3671, 
    3672, 
    3673, 
    3674, 
    3675, 
    3676, 
    3677, 
    3678, 
    3679, 
    3680, 
    3681, 
    3682, 
    3683, 
    3684, 
    3685, 
    3686, 
    3687, 
    3688, 
    3689, 
    3690, 
    3691, 
    3692, 
    3693, 
    3694, 
    3695, 
    3696, 
    3697, 
    3698, 
    3699, 
    3700, 
    3701, 
    3702, 
    3703, 
    3704, 
    3705, 
    3706, 
    3707, 
    3708, 
    3709, 
    3710, 
    3711, 
    3712, 
    3713, 
    3714, 
    3715, 
    3716, 
    3717, 
    3718, 
    3719, 
    3720, 
    3721, 
    3722, 
    3723, 
    3724, 
    3725, 
    3726, 
    3727, 
    3728, 
    3729, 
    3730, 
    3731, 
    3732, 
    3733, 
    3734, 
    3735, 
    3736, 
    3737, 
    3738, 
    3739, 
    3740, 
    3741, 
    3742, 
    3743, 
    3744, 
    3745, 
    3746, 
    3747, 
    3748, 
    3749, 
    3750, 
    3751, 
    3752, 
    3753, 
    3754, 
    3755, 
    3756, 
    3757, 
    3758, 
    3759, 
    3760, 
    3761, 
    3762, 
    3763, 
    3764, 
    3765, 
    3766, 
    3767, 
    3768, 
    3769, 
    3770, 
    3771, 
    3772, 
    3773, 
    3774, 
    3775, 
    3776, 
    3777, 
    3778, 
    3779, 
    3780, 
    3781, 
    3782, 
    3783, 
    3784, 
    3785, 
    3786, 
    3787, 
    3788, 
    3789, 
    3790, 
    3791, 
    3792, 
    3793, 
    3794, 
    3795, 
    3796, 
    3797, 
    3798, 
    3799, 
    3800, 
    3801, 
    3802, 
    3803, 
    3804, 
    3805, 
    3806, 
    3807, 
    3808, 
    3809, 
    3810, 
    3811, 
    3812, 
    3813, 
    3814, 
    3815, 
    3816, 
    3817, 
    3818, 
    3819, 
    3820, 
    3821, 
    3822, 
    3823, 
    3824, 
    3825, 
    3826, 
    3827, 
    3828, 
    3829, 
    3830, 
    3831, 
    3832, 
    3833, 
    3834, 
    3835, 
    3836, 
    3837, 
    3838, 
    3839, 
    3841
  ], 
  "heads": [[3839, 0, 0]], 
  "attrs": {"mxnet_version": ["int", 10001]}
}